{"format": "layers-model", "generatedBy": "keras v2.2.4-tf", "convertedBy": "TensorFlow.js Converter v4.13.0", "modelTopology": {"keras_version": "2.2.4-tf", "backend": "tensorflow", "model_config": {"class_name": "Model", "config": {"layers": [{"class_name": "InputLayer", "config": {"ragged": false, "dtype": "float32", "batch_input_shape": [null, 224, 224, 3], "name": "input_1", "sparse": false}, "inbound_nodes": [], "name": "input_1"}, {"class_name": "ZeroPadding2D", "config": {"padding": [[0, 1], [0, 1]], "dtype": "float32", "trainable": true, "name": "Conv1_pad", "data_format": "channels_last"}, "inbound_nodes": [[["input_1", 0, 0, {}]]], "name": "Conv1_pad"}, {"class_name": "Conv2D", "config": {"kernel_initializer": {"class_name": "GlorotUniform", "config": {"seed": null}}, "name": "Conv1", "kernel_constraint": null, "bias_regularizer": null, "bias_constraint": null, "dtype": "float32", "activation": "linear", "trainable": true, "data_format": "channels_last", "padding": "valid", "strides": [2, 2], "dilation_rate": [1, 1], "kernel_regularizer": null, "filters": 32, "bias_initializer": {"class_name": "Zeros", "config": {}}, "use_bias": false, "activity_regularizer": null, "kernel_size": [3, 3]}, "inbound_nodes": [[["Conv1_pad", 0, 0, {}]]], "name": "Conv1"}, {"class_name": "BatchNormalization", "config": {"gamma_initializer": {"class_name": "Ones", "config": {}}, "moving_mean_initializer": {"class_name": "Zeros", "config": {}}, "name": "bn_Conv1", "gamma_regularizer": null, "dtype": "float32", "trainable": true, "center": true, "moving_variance_initializer": {"class_name": "Ones", "config": {}}, "beta_initializer": {"class_name": "Zeros", "config": {}}, "scale": true, "epsilon": 0.001, "gamma_constraint": null, "beta_constraint": null, "beta_regularizer": null, "momentum": 0.999, "axis": [3]}, "inbound_nodes": [[["Conv1", 0, 0, {}]]], "name": "bn_Conv1"}, {"class_name": "ReLU", "config": {"name": "Conv1_relu", "dtype": "float32", "trainable": true, "max_value": 6.0, "threshold": 0.0, "negative_slope": 0.0}, "inbound_nodes": [[["bn_Conv1", 0, 0, {}]]], "name": "Conv1_relu"}, {"class_name": "DepthwiseConv2D", "config": {"depth_multiplier": 1, "name": "expanded_conv_depthwise", "bias_regularizer": null, "bias_constraint": null, "dtype": "float32", "activation": "linear", "trainable": true, "depthwise_constraint": null, "data_format": "channels_last", "padding": "same", "strides": [1, 1], "dilation_rate": [1, 1], "depthwise_initializer": {"class_name": "GlorotUniform", "config": {"seed": null}}, "bias_initializer": {"class_name": "Zeros", "config": {}}, "depthwise_regularizer": null, "use_bias": false, "activity_regularizer": null, "kernel_size": [3, 3]}, "inbound_nodes": [[["Conv1_relu", 0, 0, {}]]], "name": "expanded_conv_depthwise"}, {"class_name": "BatchNormalization", "config": {"gamma_initializer": {"class_name": "Ones", "config": {}}, "moving_mean_initializer": {"class_name": "Zeros", "config": {}}, "name": "expanded_conv_depthwise_BN", "gamma_regularizer": null, "dtype": "float32", "trainable": true, "center": true, "moving_variance_initializer": {"class_name": "Ones", "config": {}}, "beta_initializer": {"class_name": "Zeros", "config": {}}, "scale": true, "epsilon": 0.001, "gamma_constraint": null, "beta_constraint": null, "beta_regularizer": null, "momentum": 0.999, "axis": [3]}, "inbound_nodes": [[["expanded_conv_depthwise", 0, 0, {}]]], "name": "expanded_conv_depthwise_BN"}, {"class_name": "ReLU", "config": {"name": "expanded_conv_depthwise_relu", "dtype": "float32", "trainable": true, "max_value": 6.0, "threshold": 0.0, "negative_slope": 0.0}, "inbound_nodes": [[["expanded_conv_depthwise_BN", 0, 0, {}]]], "name": "expanded_conv_depthwise_relu"}, {"class_name": "Conv2D", "config": {"kernel_initializer": {"class_name": "GlorotUniform", "config": {"seed": null}}, "name": "expanded_conv_project", "kernel_constraint": null, "bias_regularizer": null, "bias_constraint": null, "dtype": "float32", "activation": "linear", "trainable": true, "data_format": "channels_last", "padding": "same", "strides": [1, 1], "dilation_rate": [1, 1], "kernel_regularizer": null, "filters": 16, "bias_initializer": {"class_name": "Zeros", "config": {}}, "use_bias": false, "activity_regularizer": null, "kernel_size": [1, 1]}, "inbound_nodes": [[["expanded_conv_depthwise_relu", 0, 0, {}]]], "name": "expanded_conv_project"}, {"class_name": "BatchNormalization", "config": {"gamma_initializer": {"class_name": "Ones", "config": {}}, "moving_mean_initializer": {"class_name": "Zeros", "config": {}}, "name": "expanded_conv_project_BN", "gamma_regularizer": null, "dtype": "float32", "trainable": true, "center": true, "moving_variance_initializer": {"class_name": "Ones", "config": {}}, "beta_initializer": {"class_name": "Zeros", "config": {}}, "scale": true, "epsilon": 0.001, "gamma_constraint": null, "beta_constraint": null, "beta_regularizer": null, "momentum": 0.999, "axis": [3]}, "inbound_nodes": [[["expanded_conv_project", 0, 0, {}]]], "name": "expanded_conv_project_BN"}, {"class_name": "Conv2D", "config": {"kernel_initializer": {"class_name": "GlorotUniform", "config": {"seed": null}}, "name": "block_1_expand", "kernel_constraint": null, "bias_regularizer": null, "bias_constraint": null, "dtype": "float32", "activation": "linear", "trainable": true, "data_format": "channels_last", "padding": "same", "strides": [1, 1], "dilation_rate": [1, 1], "kernel_regularizer": null, "filters": 96, "bias_initializer": {"class_name": "Zeros", "config": {}}, "use_bias": false, "activity_regularizer": null, "kernel_size": [1, 1]}, "inbound_nodes": [[["expanded_conv_project_BN", 0, 0, {}]]], "name": "block_1_expand"}, {"class_name": "BatchNormalization", "config": {"gamma_initializer": {"class_name": "Ones", "config": {}}, "moving_mean_initializer": {"class_name": "Zeros", "config": {}}, "name": "block_1_expand_BN", "gamma_regularizer": null, "dtype": "float32", "trainable": true, "center": true, "moving_variance_initializer": {"class_name": "Ones", "config": {}}, "beta_initializer": {"class_name": "Zeros", "config": {}}, "scale": true, "epsilon": 0.001, "gamma_constraint": null, "beta_constraint": null, "beta_regularizer": null, "momentum": 0.999, "axis": [3]}, "inbound_nodes": [[["block_1_expand", 0, 0, {}]]], "name": "block_1_expand_BN"}, {"class_name": "ReLU", "config": {"name": "block_1_expand_relu", "dtype": "float32", "trainable": true, "max_value": 6.0, "threshold": 0.0, "negative_slope": 0.0}, "inbound_nodes": [[["block_1_expand_BN", 0, 0, {}]]], "name": "block_1_expand_relu"}, {"class_name": "ZeroPadding2D", "config": {"padding": [[0, 1], [0, 1]], "dtype": "float32", "trainable": true, "name": "block_1_pad", "data_format": "channels_last"}, "inbound_nodes": [[["block_1_expand_relu", 0, 0, {}]]], "name": "block_1_pad"}, {"class_name": "DepthwiseConv2D", "config": {"depth_multiplier": 1, "name": "block_1_depthwise", "bias_regularizer": null, "bias_constraint": null, "dtype": "float32", "activation": "linear", "trainable": true, "depthwise_constraint": null, "data_format": "channels_last", "padding": "valid", "strides": [2, 2], "dilation_rate": [1, 1], "depthwise_initializer": {"class_name": "GlorotUniform", "config": {"seed": null}}, "bias_initializer": {"class_name": "Zeros", "config": {}}, "depthwise_regularizer": null, "use_bias": false, "activity_regularizer": null, "kernel_size": [3, 3]}, "inbound_nodes": [[["block_1_pad", 0, 0, {}]]], "name": "block_1_depthwise"}, {"class_name": "BatchNormalization", "config": {"gamma_initializer": {"class_name": "Ones", "config": {}}, "moving_mean_initializer": {"class_name": "Zeros", "config": {}}, "name": "block_1_depthwise_BN", "gamma_regularizer": null, "dtype": "float32", "trainable": true, "center": true, "moving_variance_initializer": {"class_name": "Ones", "config": {}}, "beta_initializer": {"class_name": "Zeros", "config": {}}, "scale": true, "epsilon": 0.001, "gamma_constraint": null, "beta_constraint": null, "beta_regularizer": null, "momentum": 0.999, "axis": [3]}, "inbound_nodes": [[["block_1_depthwise", 0, 0, {}]]], "name": "block_1_depthwise_BN"}, {"class_name": "ReLU", "config": {"name": "block_1_depthwise_relu", "dtype": "float32", "trainable": true, "max_value": 6.0, "threshold": 0.0, "negative_slope": 0.0}, "inbound_nodes": [[["block_1_depthwise_BN", 0, 0, {}]]], "name": "block_1_depthwise_relu"}, {"class_name": "Conv2D", "config": {"kernel_initializer": {"class_name": "GlorotUniform", "config": {"seed": null}}, "name": "block_1_project", "kernel_constraint": null, "bias_regularizer": null, "bias_constraint": null, "dtype": "float32", "activation": "linear", "trainable": true, "data_format": "channels_last", "padding": "same", "strides": [1, 1], "dilation_rate": [1, 1], "kernel_regularizer": null, "filters": 24, "bias_initializer": {"class_name": "Zeros", "config": {}}, "use_bias": false, "activity_regularizer": null, "kernel_size": [1, 1]}, "inbound_nodes": [[["block_1_depthwise_relu", 0, 0, {}]]], "name": "block_1_project"}, {"class_name": "BatchNormalization", "config": {"gamma_initializer": {"class_name": "Ones", "config": {}}, "moving_mean_initializer": {"class_name": "Zeros", "config": {}}, "name": "block_1_project_BN", "gamma_regularizer": null, "dtype": "float32", "trainable": true, "center": true, "moving_variance_initializer": {"class_name": "Ones", "config": {}}, "beta_initializer": {"class_name": "Zeros", "config": {}}, "scale": true, "epsilon": 0.001, "gamma_constraint": null, "beta_constraint": null, "beta_regularizer": null, "momentum": 0.999, "axis": [3]}, "inbound_nodes": [[["block_1_project", 0, 0, {}]]], "name": "block_1_project_BN"}, {"class_name": "Conv2D", "config": {"kernel_initializer": {"class_name": "GlorotUniform", "config": {"seed": null}}, "name": "block_2_expand", "kernel_constraint": null, "bias_regularizer": null, "bias_constraint": null, "dtype": "float32", "activation": "linear", "trainable": true, "data_format": "channels_last", "padding": "same", "strides": [1, 1], "dilation_rate": [1, 1], "kernel_regularizer": null, "filters": 144, "bias_initializer": {"class_name": "Zeros", "config": {}}, "use_bias": false, "activity_regularizer": null, "kernel_size": [1, 1]}, "inbound_nodes": [[["block_1_project_BN", 0, 0, {}]]], "name": "block_2_expand"}, {"class_name": "BatchNormalization", "config": {"gamma_initializer": {"class_name": "Ones", "config": {}}, "moving_mean_initializer": {"class_name": "Zeros", "config": {}}, "name": "block_2_expand_BN", "gamma_regularizer": null, "dtype": "float32", "trainable": true, "center": true, "moving_variance_initializer": {"class_name": "Ones", "config": {}}, "beta_initializer": {"class_name": "Zeros", "config": {}}, "scale": true, "epsilon": 0.001, "gamma_constraint": null, "beta_constraint": null, "beta_regularizer": null, "momentum": 0.999, "axis": [3]}, "inbound_nodes": [[["block_2_expand", 0, 0, {}]]], "name": "block_2_expand_BN"}, {"class_name": "ReLU", "config": {"name": "block_2_expand_relu", "dtype": "float32", "trainable": true, "max_value": 6.0, "threshold": 0.0, "negative_slope": 0.0}, "inbound_nodes": [[["block_2_expand_BN", 0, 0, {}]]], "name": "block_2_expand_relu"}, {"class_name": "DepthwiseConv2D", "config": {"depth_multiplier": 1, "name": "block_2_depthwise", "bias_regularizer": null, "bias_constraint": null, "dtype": "float32", "activation": "linear", "trainable": true, "depthwise_constraint": null, "data_format": "channels_last", "padding": "same", "strides": [1, 1], "dilation_rate": [1, 1], "depthwise_initializer": {"class_name": "GlorotUniform", "config": {"seed": null}}, "bias_initializer": {"class_name": "Zeros", "config": {}}, "depthwise_regularizer": null, "use_bias": false, "activity_regularizer": null, "kernel_size": [3, 3]}, "inbound_nodes": [[["block_2_expand_relu", 0, 0, {}]]], "name": "block_2_depthwise"}, {"class_name": "BatchNormalization", "config": {"gamma_initializer": {"class_name": "Ones", "config": {}}, "moving_mean_initializer": {"class_name": "Zeros", "config": {}}, "name": "block_2_depthwise_BN", "gamma_regularizer": null, "dtype": "float32", "trainable": true, "center": true, "moving_variance_initializer": {"class_name": "Ones", "config": {}}, "beta_initializer": {"class_name": "Zeros", "config": {}}, "scale": true, "epsilon": 0.001, "gamma_constraint": null, "beta_constraint": null, "beta_regularizer": null, "momentum": 0.999, "axis": [3]}, "inbound_nodes": [[["block_2_depthwise", 0, 0, {}]]], "name": "block_2_depthwise_BN"}, {"class_name": "ReLU", "config": {"name": "block_2_depthwise_relu", "dtype": "float32", "trainable": true, "max_value": 6.0, "threshold": 0.0, "negative_slope": 0.0}, "inbound_nodes": [[["block_2_depthwise_BN", 0, 0, {}]]], "name": "block_2_depthwise_relu"}, {"class_name": "Conv2D", "config": {"kernel_initializer": {"class_name": "GlorotUniform", "config": {"seed": null}}, "name": "block_2_project", "kernel_constraint": null, "bias_regularizer": null, "bias_constraint": null, "dtype": "float32", "activation": "linear", "trainable": true, "data_format": "channels_last", "padding": "same", "strides": [1, 1], "dilation_rate": [1, 1], "kernel_regularizer": null, "filters": 24, "bias_initializer": {"class_name": "Zeros", "config": {}}, "use_bias": false, "activity_regularizer": null, "kernel_size": [1, 1]}, "inbound_nodes": [[["block_2_depthwise_relu", 0, 0, {}]]], "name": "block_2_project"}, {"class_name": "BatchNormalization", "config": {"gamma_initializer": {"class_name": "Ones", "config": {}}, "moving_mean_initializer": {"class_name": "Zeros", "config": {}}, "name": "block_2_project_BN", "gamma_regularizer": null, "dtype": "float32", "trainable": true, "center": true, "moving_variance_initializer": {"class_name": "Ones", "config": {}}, "beta_initializer": {"class_name": "Zeros", "config": {}}, "scale": true, "epsilon": 0.001, "gamma_constraint": null, "beta_constraint": null, "beta_regularizer": null, "momentum": 0.999, "axis": [3]}, "inbound_nodes": [[["block_2_project", 0, 0, {}]]], "name": "block_2_project_BN"}, {"class_name": "Add", "config": {"dtype": "float32", "trainable": true, "name": "block_2_add"}, "inbound_nodes": [[["block_1_project_BN", 0, 0, {}], ["block_2_project_BN", 0, 0, {}]]], "name": "block_2_add"}, {"class_name": "Conv2D", "config": {"kernel_initializer": {"class_name": "GlorotUniform", "config": {"seed": null}}, "name": "block_3_expand", "kernel_constraint": null, "bias_regularizer": null, "bias_constraint": null, "dtype": "float32", "activation": "linear", "trainable": true, "data_format": "channels_last", "padding": "same", "strides": [1, 1], "dilation_rate": [1, 1], "kernel_regularizer": null, "filters": 144, "bias_initializer": {"class_name": "Zeros", "config": {}}, "use_bias": false, "activity_regularizer": null, "kernel_size": [1, 1]}, "inbound_nodes": [[["block_2_add", 0, 0, {}]]], "name": "block_3_expand"}, {"class_name": "BatchNormalization", "config": {"gamma_initializer": {"class_name": "Ones", "config": {}}, "moving_mean_initializer": {"class_name": "Zeros", "config": {}}, "name": "block_3_expand_BN", "gamma_regularizer": null, "dtype": "float32", "trainable": true, "center": true, "moving_variance_initializer": {"class_name": "Ones", "config": {}}, "beta_initializer": {"class_name": "Zeros", "config": {}}, "scale": true, "epsilon": 0.001, "gamma_constraint": null, "beta_constraint": null, "beta_regularizer": null, "momentum": 0.999, "axis": [3]}, "inbound_nodes": [[["block_3_expand", 0, 0, {}]]], "name": "block_3_expand_BN"}, {"class_name": "ReLU", "config": {"name": "block_3_expand_relu", "dtype": "float32", "trainable": true, "max_value": 6.0, "threshold": 0.0, "negative_slope": 0.0}, "inbound_nodes": [[["block_3_expand_BN", 0, 0, {}]]], "name": "block_3_expand_relu"}, {"class_name": "ZeroPadding2D", "config": {"padding": [[0, 1], [0, 1]], "dtype": "float32", "trainable": true, "name": "block_3_pad", "data_format": "channels_last"}, "inbound_nodes": [[["block_3_expand_relu", 0, 0, {}]]], "name": "block_3_pad"}, {"class_name": "DepthwiseConv2D", "config": {"depth_multiplier": 1, "name": "block_3_depthwise", "bias_regularizer": null, "bias_constraint": null, "dtype": "float32", "activation": "linear", "trainable": true, "depthwise_constraint": null, "data_format": "channels_last", "padding": "valid", "strides": [2, 2], "dilation_rate": [1, 1], "depthwise_initializer": {"class_name": "GlorotUniform", "config": {"seed": null}}, "bias_initializer": {"class_name": "Zeros", "config": {}}, "depthwise_regularizer": null, "use_bias": false, "activity_regularizer": null, "kernel_size": [3, 3]}, "inbound_nodes": [[["block_3_pad", 0, 0, {}]]], "name": "block_3_depthwise"}, {"class_name": "BatchNormalization", "config": {"gamma_initializer": {"class_name": "Ones", "config": {}}, "moving_mean_initializer": {"class_name": "Zeros", "config": {}}, "name": "block_3_depthwise_BN", "gamma_regularizer": null, "dtype": "float32", "trainable": true, "center": true, "moving_variance_initializer": {"class_name": "Ones", "config": {}}, "beta_initializer": {"class_name": "Zeros", "config": {}}, "scale": true, "epsilon": 0.001, "gamma_constraint": null, "beta_constraint": null, "beta_regularizer": null, "momentum": 0.999, "axis": [3]}, "inbound_nodes": [[["block_3_depthwise", 0, 0, {}]]], "name": "block_3_depthwise_BN"}, {"class_name": "ReLU", "config": {"name": "block_3_depthwise_relu", "dtype": "float32", "trainable": true, "max_value": 6.0, "threshold": 0.0, "negative_slope": 0.0}, "inbound_nodes": [[["block_3_depthwise_BN", 0, 0, {}]]], "name": "block_3_depthwise_relu"}, {"class_name": "Conv2D", "config": {"kernel_initializer": {"class_name": "GlorotUniform", "config": {"seed": null}}, "name": "block_3_project", "kernel_constraint": null, "bias_regularizer": null, "bias_constraint": null, "dtype": "float32", "activation": "linear", "trainable": true, "data_format": "channels_last", "padding": "same", "strides": [1, 1], "dilation_rate": [1, 1], "kernel_regularizer": null, "filters": 32, "bias_initializer": {"class_name": "Zeros", "config": {}}, "use_bias": false, "activity_regularizer": null, "kernel_size": [1, 1]}, "inbound_nodes": [[["block_3_depthwise_relu", 0, 0, {}]]], "name": "block_3_project"}, {"class_name": "BatchNormalization", "config": {"gamma_initializer": {"class_name": "Ones", "config": {}}, "moving_mean_initializer": {"class_name": "Zeros", "config": {}}, "name": "block_3_project_BN", "gamma_regularizer": null, "dtype": "float32", "trainable": true, "center": true, "moving_variance_initializer": {"class_name": "Ones", "config": {}}, "beta_initializer": {"class_name": "Zeros", "config": {}}, "scale": true, "epsilon": 0.001, "gamma_constraint": null, "beta_constraint": null, "beta_regularizer": null, "momentum": 0.999, "axis": [3]}, "inbound_nodes": [[["block_3_project", 0, 0, {}]]], "name": "block_3_project_BN"}, {"class_name": "Conv2D", "config": {"kernel_initializer": {"class_name": "GlorotUniform", "config": {"seed": null}}, "name": "block_4_expand", "kernel_constraint": null, "bias_regularizer": null, "bias_constraint": null, "dtype": "float32", "activation": "linear", "trainable": true, "data_format": "channels_last", "padding": "same", "strides": [1, 1], "dilation_rate": [1, 1], "kernel_regularizer": null, "filters": 192, "bias_initializer": {"class_name": "Zeros", "config": {}}, "use_bias": false, "activity_regularizer": null, "kernel_size": [1, 1]}, "inbound_nodes": [[["block_3_project_BN", 0, 0, {}]]], "name": "block_4_expand"}, {"class_name": "BatchNormalization", "config": {"gamma_initializer": {"class_name": "Ones", "config": {}}, "moving_mean_initializer": {"class_name": "Zeros", "config": {}}, "name": "block_4_expand_BN", "gamma_regularizer": null, "dtype": "float32", "trainable": true, "center": true, "moving_variance_initializer": {"class_name": "Ones", "config": {}}, "beta_initializer": {"class_name": "Zeros", "config": {}}, "scale": true, "epsilon": 0.001, "gamma_constraint": null, "beta_constraint": null, "beta_regularizer": null, "momentum": 0.999, "axis": [3]}, "inbound_nodes": [[["block_4_expand", 0, 0, {}]]], "name": "block_4_expand_BN"}, {"class_name": "ReLU", "config": {"name": "block_4_expand_relu", "dtype": "float32", "trainable": true, "max_value": 6.0, "threshold": 0.0, "negative_slope": 0.0}, "inbound_nodes": [[["block_4_expand_BN", 0, 0, {}]]], "name": "block_4_expand_relu"}, {"class_name": "DepthwiseConv2D", "config": {"depth_multiplier": 1, "name": "block_4_depthwise", "bias_regularizer": null, "bias_constraint": null, "dtype": "float32", "activation": "linear", "trainable": true, "depthwise_constraint": null, "data_format": "channels_last", "padding": "same", "strides": [1, 1], "dilation_rate": [1, 1], "depthwise_initializer": {"class_name": "GlorotUniform", "config": {"seed": null}}, "bias_initializer": {"class_name": "Zeros", "config": {}}, "depthwise_regularizer": null, "use_bias": false, "activity_regularizer": null, "kernel_size": [3, 3]}, "inbound_nodes": [[["block_4_expand_relu", 0, 0, {}]]], "name": "block_4_depthwise"}, {"class_name": "BatchNormalization", "config": {"gamma_initializer": {"class_name": "Ones", "config": {}}, "moving_mean_initializer": {"class_name": "Zeros", "config": {}}, "name": "block_4_depthwise_BN", "gamma_regularizer": null, "dtype": "float32", "trainable": true, "center": true, "moving_variance_initializer": {"class_name": "Ones", "config": {}}, "beta_initializer": {"class_name": "Zeros", "config": {}}, "scale": true, "epsilon": 0.001, "gamma_constraint": null, "beta_constraint": null, "beta_regularizer": null, "momentum": 0.999, "axis": [3]}, "inbound_nodes": [[["block_4_depthwise", 0, 0, {}]]], "name": "block_4_depthwise_BN"}, {"class_name": "ReLU", "config": {"name": "block_4_depthwise_relu", "dtype": "float32", "trainable": true, "max_value": 6.0, "threshold": 0.0, "negative_slope": 0.0}, "inbound_nodes": [[["block_4_depthwise_BN", 0, 0, {}]]], "name": "block_4_depthwise_relu"}, {"class_name": "Conv2D", "config": {"kernel_initializer": {"class_name": "GlorotUniform", "config": {"seed": null}}, "name": "block_4_project", "kernel_constraint": null, "bias_regularizer": null, "bias_constraint": null, "dtype": "float32", "activation": "linear", "trainable": true, "data_format": "channels_last", "padding": "same", "strides": [1, 1], "dilation_rate": [1, 1], "kernel_regularizer": null, "filters": 32, "bias_initializer": {"class_name": "Zeros", "config": {}}, "use_bias": false, "activity_regularizer": null, "kernel_size": [1, 1]}, "inbound_nodes": [[["block_4_depthwise_relu", 0, 0, {}]]], "name": "block_4_project"}, {"class_name": "BatchNormalization", "config": {"gamma_initializer": {"class_name": "Ones", "config": {}}, "moving_mean_initializer": {"class_name": "Zeros", "config": {}}, "name": "block_4_project_BN", "gamma_regularizer": null, "dtype": "float32", "trainable": true, "center": true, "moving_variance_initializer": {"class_name": "Ones", "config": {}}, "beta_initializer": {"class_name": "Zeros", "config": {}}, "scale": true, "epsilon": 0.001, "gamma_constraint": null, "beta_constraint": null, "beta_regularizer": null, "momentum": 0.999, "axis": [3]}, "inbound_nodes": [[["block_4_project", 0, 0, {}]]], "name": "block_4_project_BN"}, {"class_name": "Add", "config": {"dtype": "float32", "trainable": true, "name": "block_4_add"}, "inbound_nodes": [[["block_3_project_BN", 0, 0, {}], ["block_4_project_BN", 0, 0, {}]]], "name": "block_4_add"}, {"class_name": "Conv2D", "config": {"kernel_initializer": {"class_name": "GlorotUniform", "config": {"seed": null}}, "name": "block_5_expand", "kernel_constraint": null, "bias_regularizer": null, "bias_constraint": null, "dtype": "float32", "activation": "linear", "trainable": true, "data_format": "channels_last", "padding": "same", "strides": [1, 1], "dilation_rate": [1, 1], "kernel_regularizer": null, "filters": 192, "bias_initializer": {"class_name": "Zeros", "config": {}}, "use_bias": false, "activity_regularizer": null, "kernel_size": [1, 1]}, "inbound_nodes": [[["block_4_add", 0, 0, {}]]], "name": "block_5_expand"}, {"class_name": "BatchNormalization", "config": {"gamma_initializer": {"class_name": "Ones", "config": {}}, "moving_mean_initializer": {"class_name": "Zeros", "config": {}}, "name": "block_5_expand_BN", "gamma_regularizer": null, "dtype": "float32", "trainable": true, "center": true, "moving_variance_initializer": {"class_name": "Ones", "config": {}}, "beta_initializer": {"class_name": "Zeros", "config": {}}, "scale": true, "epsilon": 0.001, "gamma_constraint": null, "beta_constraint": null, "beta_regularizer": null, "momentum": 0.999, "axis": [3]}, "inbound_nodes": [[["block_5_expand", 0, 0, {}]]], "name": "block_5_expand_BN"}, {"class_name": "ReLU", "config": {"name": "block_5_expand_relu", "dtype": "float32", "trainable": true, "max_value": 6.0, "threshold": 0.0, "negative_slope": 0.0}, "inbound_nodes": [[["block_5_expand_BN", 0, 0, {}]]], "name": "block_5_expand_relu"}, {"class_name": "DepthwiseConv2D", "config": {"depth_multiplier": 1, "name": "block_5_depthwise", "bias_regularizer": null, "bias_constraint": null, "dtype": "float32", "activation": "linear", "trainable": true, "depthwise_constraint": null, "data_format": "channels_last", "padding": "same", "strides": [1, 1], "dilation_rate": [1, 1], "depthwise_initializer": {"class_name": "GlorotUniform", "config": {"seed": null}}, "bias_initializer": {"class_name": "Zeros", "config": {}}, "depthwise_regularizer": null, "use_bias": false, "activity_regularizer": null, "kernel_size": [3, 3]}, "inbound_nodes": [[["block_5_expand_relu", 0, 0, {}]]], "name": "block_5_depthwise"}, {"class_name": "BatchNormalization", "config": {"gamma_initializer": {"class_name": "Ones", "config": {}}, "moving_mean_initializer": {"class_name": "Zeros", "config": {}}, "name": "block_5_depthwise_BN", "gamma_regularizer": null, "dtype": "float32", "trainable": true, "center": true, "moving_variance_initializer": {"class_name": "Ones", "config": {}}, "beta_initializer": {"class_name": "Zeros", "config": {}}, "scale": true, "epsilon": 0.001, "gamma_constraint": null, "beta_constraint": null, "beta_regularizer": null, "momentum": 0.999, "axis": [3]}, "inbound_nodes": [[["block_5_depthwise", 0, 0, {}]]], "name": "block_5_depthwise_BN"}, {"class_name": "ReLU", "config": {"name": "block_5_depthwise_relu", "dtype": "float32", "trainable": true, "max_value": 6.0, "threshold": 0.0, "negative_slope": 0.0}, "inbound_nodes": [[["block_5_depthwise_BN", 0, 0, {}]]], "name": "block_5_depthwise_relu"}, {"class_name": "Conv2D", "config": {"kernel_initializer": {"class_name": "GlorotUniform", "config": {"seed": null}}, "name": "block_5_project", "kernel_constraint": null, "bias_regularizer": null, "bias_constraint": null, "dtype": "float32", "activation": "linear", "trainable": true, "data_format": "channels_last", "padding": "same", "strides": [1, 1], "dilation_rate": [1, 1], "kernel_regularizer": null, "filters": 32, "bias_initializer": {"class_name": "Zeros", "config": {}}, "use_bias": false, "activity_regularizer": null, "kernel_size": [1, 1]}, "inbound_nodes": [[["block_5_depthwise_relu", 0, 0, {}]]], "name": "block_5_project"}, {"class_name": "BatchNormalization", "config": {"gamma_initializer": {"class_name": "Ones", "config": {}}, "moving_mean_initializer": {"class_name": "Zeros", "config": {}}, "name": "block_5_project_BN", "gamma_regularizer": null, "dtype": "float32", "trainable": true, "center": true, "moving_variance_initializer": {"class_name": "Ones", "config": {}}, "beta_initializer": {"class_name": "Zeros", "config": {}}, "scale": true, "epsilon": 0.001, "gamma_constraint": null, "beta_constraint": null, "beta_regularizer": null, "momentum": 0.999, "axis": [3]}, "inbound_nodes": [[["block_5_project", 0, 0, {}]]], "name": "block_5_project_BN"}, {"class_name": "Add", "config": {"dtype": "float32", "trainable": true, "name": "block_5_add"}, "inbound_nodes": [[["block_4_add", 0, 0, {}], ["block_5_project_BN", 0, 0, {}]]], "name": "block_5_add"}, {"class_name": "Conv2D", "config": {"kernel_initializer": {"class_name": "GlorotUniform", "config": {"seed": null}}, "name": "block_6_expand", "kernel_constraint": null, "bias_regularizer": null, "bias_constraint": null, "dtype": "float32", "activation": "linear", "trainable": true, "data_format": "channels_last", "padding": "same", "strides": [1, 1], "dilation_rate": [1, 1], "kernel_regularizer": null, "filters": 192, "bias_initializer": {"class_name": "Zeros", "config": {}}, "use_bias": false, "activity_regularizer": null, "kernel_size": [1, 1]}, "inbound_nodes": [[["block_5_add", 0, 0, {}]]], "name": "block_6_expand"}, {"class_name": "BatchNormalization", "config": {"gamma_initializer": {"class_name": "Ones", "config": {}}, "moving_mean_initializer": {"class_name": "Zeros", "config": {}}, "name": "block_6_expand_BN", "gamma_regularizer": null, "dtype": "float32", "trainable": true, "center": true, "moving_variance_initializer": {"class_name": "Ones", "config": {}}, "beta_initializer": {"class_name": "Zeros", "config": {}}, "scale": true, "epsilon": 0.001, "gamma_constraint": null, "beta_constraint": null, "beta_regularizer": null, "momentum": 0.999, "axis": [3]}, "inbound_nodes": [[["block_6_expand", 0, 0, {}]]], "name": "block_6_expand_BN"}, {"class_name": "ReLU", "config": {"name": "block_6_expand_relu", "dtype": "float32", "trainable": true, "max_value": 6.0, "threshold": 0.0, "negative_slope": 0.0}, "inbound_nodes": [[["block_6_expand_BN", 0, 0, {}]]], "name": "block_6_expand_relu"}, {"class_name": "ZeroPadding2D", "config": {"padding": [[0, 1], [0, 1]], "dtype": "float32", "trainable": true, "name": "block_6_pad", "data_format": "channels_last"}, "inbound_nodes": [[["block_6_expand_relu", 0, 0, {}]]], "name": "block_6_pad"}, {"class_name": "DepthwiseConv2D", "config": {"depth_multiplier": 1, "name": "block_6_depthwise", "bias_regularizer": null, "bias_constraint": null, "dtype": "float32", "activation": "linear", "trainable": true, "depthwise_constraint": null, "data_format": "channels_last", "padding": "valid", "strides": [2, 2], "dilation_rate": [1, 1], "depthwise_initializer": {"class_name": "GlorotUniform", "config": {"seed": null}}, "bias_initializer": {"class_name": "Zeros", "config": {}}, "depthwise_regularizer": null, "use_bias": false, "activity_regularizer": null, "kernel_size": [3, 3]}, "inbound_nodes": [[["block_6_pad", 0, 0, {}]]], "name": "block_6_depthwise"}, {"class_name": "BatchNormalization", "config": {"gamma_initializer": {"class_name": "Ones", "config": {}}, "moving_mean_initializer": {"class_name": "Zeros", "config": {}}, "name": "block_6_depthwise_BN", "gamma_regularizer": null, "dtype": "float32", "trainable": true, "center": true, "moving_variance_initializer": {"class_name": "Ones", "config": {}}, "beta_initializer": {"class_name": "Zeros", "config": {}}, "scale": true, "epsilon": 0.001, "gamma_constraint": null, "beta_constraint": null, "beta_regularizer": null, "momentum": 0.999, "axis": [3]}, "inbound_nodes": [[["block_6_depthwise", 0, 0, {}]]], "name": "block_6_depthwise_BN"}, {"class_name": "ReLU", "config": {"name": "block_6_depthwise_relu", "dtype": "float32", "trainable": true, "max_value": 6.0, "threshold": 0.0, "negative_slope": 0.0}, "inbound_nodes": [[["block_6_depthwise_BN", 0, 0, {}]]], "name": "block_6_depthwise_relu"}, {"class_name": "Conv2D", "config": {"kernel_initializer": {"class_name": "GlorotUniform", "config": {"seed": null}}, "name": "block_6_project", "kernel_constraint": null, "bias_regularizer": null, "bias_constraint": null, "dtype": "float32", "activation": "linear", "trainable": true, "data_format": "channels_last", "padding": "same", "strides": [1, 1], "dilation_rate": [1, 1], "kernel_regularizer": null, "filters": 64, "bias_initializer": {"class_name": "Zeros", "config": {}}, "use_bias": false, "activity_regularizer": null, "kernel_size": [1, 1]}, "inbound_nodes": [[["block_6_depthwise_relu", 0, 0, {}]]], "name": "block_6_project"}, {"class_name": "BatchNormalization", "config": {"gamma_initializer": {"class_name": "Ones", "config": {}}, "moving_mean_initializer": {"class_name": "Zeros", "config": {}}, "name": "block_6_project_BN", "gamma_regularizer": null, "dtype": "float32", "trainable": true, "center": true, "moving_variance_initializer": {"class_name": "Ones", "config": {}}, "beta_initializer": {"class_name": "Zeros", "config": {}}, "scale": true, "epsilon": 0.001, "gamma_constraint": null, "beta_constraint": null, "beta_regularizer": null, "momentum": 0.999, "axis": [3]}, "inbound_nodes": [[["block_6_project", 0, 0, {}]]], "name": "block_6_project_BN"}, {"class_name": "Conv2D", "config": {"kernel_initializer": {"class_name": "GlorotUniform", "config": {"seed": null}}, "name": "block_7_expand", "kernel_constraint": null, "bias_regularizer": null, "bias_constraint": null, "dtype": "float32", "activation": "linear", "trainable": true, "data_format": "channels_last", "padding": "same", "strides": [1, 1], "dilation_rate": [1, 1], "kernel_regularizer": null, "filters": 384, "bias_initializer": {"class_name": "Zeros", "config": {}}, "use_bias": false, "activity_regularizer": null, "kernel_size": [1, 1]}, "inbound_nodes": [[["block_6_project_BN", 0, 0, {}]]], "name": "block_7_expand"}, {"class_name": "BatchNormalization", "config": {"gamma_initializer": {"class_name": "Ones", "config": {}}, "moving_mean_initializer": {"class_name": "Zeros", "config": {}}, "name": "block_7_expand_BN", "gamma_regularizer": null, "dtype": "float32", "trainable": true, "center": true, "moving_variance_initializer": {"class_name": "Ones", "config": {}}, "beta_initializer": {"class_name": "Zeros", "config": {}}, "scale": true, "epsilon": 0.001, "gamma_constraint": null, "beta_constraint": null, "beta_regularizer": null, "momentum": 0.999, "axis": [3]}, "inbound_nodes": [[["block_7_expand", 0, 0, {}]]], "name": "block_7_expand_BN"}, {"class_name": "ReLU", "config": {"name": "block_7_expand_relu", "dtype": "float32", "trainable": true, "max_value": 6.0, "threshold": 0.0, "negative_slope": 0.0}, "inbound_nodes": [[["block_7_expand_BN", 0, 0, {}]]], "name": "block_7_expand_relu"}, {"class_name": "DepthwiseConv2D", "config": {"depth_multiplier": 1, "name": "block_7_depthwise", "bias_regularizer": null, "bias_constraint": null, "dtype": "float32", "activation": "linear", "trainable": true, "depthwise_constraint": null, "data_format": "channels_last", "padding": "same", "strides": [1, 1], "dilation_rate": [1, 1], "depthwise_initializer": {"class_name": "GlorotUniform", "config": {"seed": null}}, "bias_initializer": {"class_name": "Zeros", "config": {}}, "depthwise_regularizer": null, "use_bias": false, "activity_regularizer": null, "kernel_size": [3, 3]}, "inbound_nodes": [[["block_7_expand_relu", 0, 0, {}]]], "name": "block_7_depthwise"}, {"class_name": "BatchNormalization", "config": {"gamma_initializer": {"class_name": "Ones", "config": {}}, "moving_mean_initializer": {"class_name": "Zeros", "config": {}}, "name": "block_7_depthwise_BN", "gamma_regularizer": null, "dtype": "float32", "trainable": true, "center": true, "moving_variance_initializer": {"class_name": "Ones", "config": {}}, "beta_initializer": {"class_name": "Zeros", "config": {}}, "scale": true, "epsilon": 0.001, "gamma_constraint": null, "beta_constraint": null, "beta_regularizer": null, "momentum": 0.999, "axis": [3]}, "inbound_nodes": [[["block_7_depthwise", 0, 0, {}]]], "name": "block_7_depthwise_BN"}, {"class_name": "ReLU", "config": {"name": "block_7_depthwise_relu", "dtype": "float32", "trainable": true, "max_value": 6.0, "threshold": 0.0, "negative_slope": 0.0}, "inbound_nodes": [[["block_7_depthwise_BN", 0, 0, {}]]], "name": "block_7_depthwise_relu"}, {"class_name": "Conv2D", "config": {"kernel_initializer": {"class_name": "GlorotUniform", "config": {"seed": null}}, "name": "block_7_project", "kernel_constraint": null, "bias_regularizer": null, "bias_constraint": null, "dtype": "float32", "activation": "linear", "trainable": true, "data_format": "channels_last", "padding": "same", "strides": [1, 1], "dilation_rate": [1, 1], "kernel_regularizer": null, "filters": 64, "bias_initializer": {"class_name": "Zeros", "config": {}}, "use_bias": false, "activity_regularizer": null, "kernel_size": [1, 1]}, "inbound_nodes": [[["block_7_depthwise_relu", 0, 0, {}]]], "name": "block_7_project"}, {"class_name": "BatchNormalization", "config": {"gamma_initializer": {"class_name": "Ones", "config": {}}, "moving_mean_initializer": {"class_name": "Zeros", "config": {}}, "name": "block_7_project_BN", "gamma_regularizer": null, "dtype": "float32", "trainable": true, "center": true, "moving_variance_initializer": {"class_name": "Ones", "config": {}}, "beta_initializer": {"class_name": "Zeros", "config": {}}, "scale": true, "epsilon": 0.001, "gamma_constraint": null, "beta_constraint": null, "beta_regularizer": null, "momentum": 0.999, "axis": [3]}, "inbound_nodes": [[["block_7_project", 0, 0, {}]]], "name": "block_7_project_BN"}, {"class_name": "Add", "config": {"dtype": "float32", "trainable": true, "name": "block_7_add"}, "inbound_nodes": [[["block_6_project_BN", 0, 0, {}], ["block_7_project_BN", 0, 0, {}]]], "name": "block_7_add"}, {"class_name": "Conv2D", "config": {"kernel_initializer": {"class_name": "GlorotUniform", "config": {"seed": null}}, "name": "block_8_expand", "kernel_constraint": null, "bias_regularizer": null, "bias_constraint": null, "dtype": "float32", "activation": "linear", "trainable": true, "data_format": "channels_last", "padding": "same", "strides": [1, 1], "dilation_rate": [1, 1], "kernel_regularizer": null, "filters": 384, "bias_initializer": {"class_name": "Zeros", "config": {}}, "use_bias": false, "activity_regularizer": null, "kernel_size": [1, 1]}, "inbound_nodes": [[["block_7_add", 0, 0, {}]]], "name": "block_8_expand"}, {"class_name": "BatchNormalization", "config": {"gamma_initializer": {"class_name": "Ones", "config": {}}, "moving_mean_initializer": {"class_name": "Zeros", "config": {}}, "name": "block_8_expand_BN", "gamma_regularizer": null, "dtype": "float32", "trainable": true, "center": true, "moving_variance_initializer": {"class_name": "Ones", "config": {}}, "beta_initializer": {"class_name": "Zeros", "config": {}}, "scale": true, "epsilon": 0.001, "gamma_constraint": null, "beta_constraint": null, "beta_regularizer": null, "momentum": 0.999, "axis": [3]}, "inbound_nodes": [[["block_8_expand", 0, 0, {}]]], "name": "block_8_expand_BN"}, {"class_name": "ReLU", "config": {"name": "block_8_expand_relu", "dtype": "float32", "trainable": true, "max_value": 6.0, "threshold": 0.0, "negative_slope": 0.0}, "inbound_nodes": [[["block_8_expand_BN", 0, 0, {}]]], "name": "block_8_expand_relu"}, {"class_name": "DepthwiseConv2D", "config": {"depth_multiplier": 1, "name": "block_8_depthwise", "bias_regularizer": null, "bias_constraint": null, "dtype": "float32", "activation": "linear", "trainable": true, "depthwise_constraint": null, "data_format": "channels_last", "padding": "same", "strides": [1, 1], "dilation_rate": [1, 1], "depthwise_initializer": {"class_name": "GlorotUniform", "config": {"seed": null}}, "bias_initializer": {"class_name": "Zeros", "config": {}}, "depthwise_regularizer": null, "use_bias": false, "activity_regularizer": null, "kernel_size": [3, 3]}, "inbound_nodes": [[["block_8_expand_relu", 0, 0, {}]]], "name": "block_8_depthwise"}, {"class_name": "BatchNormalization", "config": {"gamma_initializer": {"class_name": "Ones", "config": {}}, "moving_mean_initializer": {"class_name": "Zeros", "config": {}}, "name": "block_8_depthwise_BN", "gamma_regularizer": null, "dtype": "float32", "trainable": true, "center": true, "moving_variance_initializer": {"class_name": "Ones", "config": {}}, "beta_initializer": {"class_name": "Zeros", "config": {}}, "scale": true, "epsilon": 0.001, "gamma_constraint": null, "beta_constraint": null, "beta_regularizer": null, "momentum": 0.999, "axis": [3]}, "inbound_nodes": [[["block_8_depthwise", 0, 0, {}]]], "name": "block_8_depthwise_BN"}, {"class_name": "ReLU", "config": {"name": "block_8_depthwise_relu", "dtype": "float32", "trainable": true, "max_value": 6.0, "threshold": 0.0, "negative_slope": 0.0}, "inbound_nodes": [[["block_8_depthwise_BN", 0, 0, {}]]], "name": "block_8_depthwise_relu"}, {"class_name": "Conv2D", "config": {"kernel_initializer": {"class_name": "GlorotUniform", "config": {"seed": null}}, "name": "block_8_project", "kernel_constraint": null, "bias_regularizer": null, "bias_constraint": null, "dtype": "float32", "activation": "linear", "trainable": true, "data_format": "channels_last", "padding": "same", "strides": [1, 1], "dilation_rate": [1, 1], "kernel_regularizer": null, "filters": 64, "bias_initializer": {"class_name": "Zeros", "config": {}}, "use_bias": false, "activity_regularizer": null, "kernel_size": [1, 1]}, "inbound_nodes": [[["block_8_depthwise_relu", 0, 0, {}]]], "name": "block_8_project"}, {"class_name": "BatchNormalization", "config": {"gamma_initializer": {"class_name": "Ones", "config": {}}, "moving_mean_initializer": {"class_name": "Zeros", "config": {}}, "name": "block_8_project_BN", "gamma_regularizer": null, "dtype": "float32", "trainable": true, "center": true, "moving_variance_initializer": {"class_name": "Ones", "config": {}}, "beta_initializer": {"class_name": "Zeros", "config": {}}, "scale": true, "epsilon": 0.001, "gamma_constraint": null, "beta_constraint": null, "beta_regularizer": null, "momentum": 0.999, "axis": [3]}, "inbound_nodes": [[["block_8_project", 0, 0, {}]]], "name": "block_8_project_BN"}, {"class_name": "Add", "config": {"dtype": "float32", "trainable": true, "name": "block_8_add"}, "inbound_nodes": [[["block_7_add", 0, 0, {}], ["block_8_project_BN", 0, 0, {}]]], "name": "block_8_add"}, {"class_name": "Conv2D", "config": {"kernel_initializer": {"class_name": "GlorotUniform", "config": {"seed": null}}, "name": "block_9_expand", "kernel_constraint": null, "bias_regularizer": null, "bias_constraint": null, "dtype": "float32", "activation": "linear", "trainable": true, "data_format": "channels_last", "padding": "same", "strides": [1, 1], "dilation_rate": [1, 1], "kernel_regularizer": null, "filters": 384, "bias_initializer": {"class_name": "Zeros", "config": {}}, "use_bias": false, "activity_regularizer": null, "kernel_size": [1, 1]}, "inbound_nodes": [[["block_8_add", 0, 0, {}]]], "name": "block_9_expand"}, {"class_name": "BatchNormalization", "config": {"gamma_initializer": {"class_name": "Ones", "config": {}}, "moving_mean_initializer": {"class_name": "Zeros", "config": {}}, "name": "block_9_expand_BN", "gamma_regularizer": null, "dtype": "float32", "trainable": true, "center": true, "moving_variance_initializer": {"class_name": "Ones", "config": {}}, "beta_initializer": {"class_name": "Zeros", "config": {}}, "scale": true, "epsilon": 0.001, "gamma_constraint": null, "beta_constraint": null, "beta_regularizer": null, "momentum": 0.999, "axis": [3]}, "inbound_nodes": [[["block_9_expand", 0, 0, {}]]], "name": "block_9_expand_BN"}, {"class_name": "ReLU", "config": {"name": "block_9_expand_relu", "dtype": "float32", "trainable": true, "max_value": 6.0, "threshold": 0.0, "negative_slope": 0.0}, "inbound_nodes": [[["block_9_expand_BN", 0, 0, {}]]], "name": "block_9_expand_relu"}, {"class_name": "DepthwiseConv2D", "config": {"depth_multiplier": 1, "name": "block_9_depthwise", "bias_regularizer": null, "bias_constraint": null, "dtype": "float32", "activation": "linear", "trainable": true, "depthwise_constraint": null, "data_format": "channels_last", "padding": "same", "strides": [1, 1], "dilation_rate": [1, 1], "depthwise_initializer": {"class_name": "GlorotUniform", "config": {"seed": null}}, "bias_initializer": {"class_name": "Zeros", "config": {}}, "depthwise_regularizer": null, "use_bias": false, "activity_regularizer": null, "kernel_size": [3, 3]}, "inbound_nodes": [[["block_9_expand_relu", 0, 0, {}]]], "name": "block_9_depthwise"}, {"class_name": "BatchNormalization", "config": {"gamma_initializer": {"class_name": "Ones", "config": {}}, "moving_mean_initializer": {"class_name": "Zeros", "config": {}}, "name": "block_9_depthwise_BN", "gamma_regularizer": null, "dtype": "float32", "trainable": true, "center": true, "moving_variance_initializer": {"class_name": "Ones", "config": {}}, "beta_initializer": {"class_name": "Zeros", "config": {}}, "scale": true, "epsilon": 0.001, "gamma_constraint": null, "beta_constraint": null, "beta_regularizer": null, "momentum": 0.999, "axis": [3]}, "inbound_nodes": [[["block_9_depthwise", 0, 0, {}]]], "name": "block_9_depthwise_BN"}, {"class_name": "ReLU", "config": {"name": "block_9_depthwise_relu", "dtype": "float32", "trainable": true, "max_value": 6.0, "threshold": 0.0, "negative_slope": 0.0}, "inbound_nodes": [[["block_9_depthwise_BN", 0, 0, {}]]], "name": "block_9_depthwise_relu"}, {"class_name": "Conv2D", "config": {"kernel_initializer": {"class_name": "GlorotUniform", "config": {"seed": null}}, "name": "block_9_project", "kernel_constraint": null, "bias_regularizer": null, "bias_constraint": null, "dtype": "float32", "activation": "linear", "trainable": true, "data_format": "channels_last", "padding": "same", "strides": [1, 1], "dilation_rate": [1, 1], "kernel_regularizer": null, "filters": 64, "bias_initializer": {"class_name": "Zeros", "config": {}}, "use_bias": false, "activity_regularizer": null, "kernel_size": [1, 1]}, "inbound_nodes": [[["block_9_depthwise_relu", 0, 0, {}]]], "name": "block_9_project"}, {"class_name": "BatchNormalization", "config": {"gamma_initializer": {"class_name": "Ones", "config": {}}, "moving_mean_initializer": {"class_name": "Zeros", "config": {}}, "name": "block_9_project_BN", "gamma_regularizer": null, "dtype": "float32", "trainable": true, "center": true, "moving_variance_initializer": {"class_name": "Ones", "config": {}}, "beta_initializer": {"class_name": "Zeros", "config": {}}, "scale": true, "epsilon": 0.001, "gamma_constraint": null, "beta_constraint": null, "beta_regularizer": null, "momentum": 0.999, "axis": [3]}, "inbound_nodes": [[["block_9_project", 0, 0, {}]]], "name": "block_9_project_BN"}, {"class_name": "Add", "config": {"dtype": "float32", "trainable": true, "name": "block_9_add"}, "inbound_nodes": [[["block_8_add", 0, 0, {}], ["block_9_project_BN", 0, 0, {}]]], "name": "block_9_add"}, {"class_name": "Conv2D", "config": {"kernel_initializer": {"class_name": "GlorotUniform", "config": {"seed": null}}, "name": "block_10_expand", "kernel_constraint": null, "bias_regularizer": null, "bias_constraint": null, "dtype": "float32", "activation": "linear", "trainable": true, "data_format": "channels_last", "padding": "same", "strides": [1, 1], "dilation_rate": [1, 1], "kernel_regularizer": null, "filters": 384, "bias_initializer": {"class_name": "Zeros", "config": {}}, "use_bias": false, "activity_regularizer": null, "kernel_size": [1, 1]}, "inbound_nodes": [[["block_9_add", 0, 0, {}]]], "name": "block_10_expand"}, {"class_name": "BatchNormalization", "config": {"gamma_initializer": {"class_name": "Ones", "config": {}}, "moving_mean_initializer": {"class_name": "Zeros", "config": {}}, "name": "block_10_expand_BN", "gamma_regularizer": null, "dtype": "float32", "trainable": true, "center": true, "moving_variance_initializer": {"class_name": "Ones", "config": {}}, "beta_initializer": {"class_name": "Zeros", "config": {}}, "scale": true, "epsilon": 0.001, "gamma_constraint": null, "beta_constraint": null, "beta_regularizer": null, "momentum": 0.999, "axis": [3]}, "inbound_nodes": [[["block_10_expand", 0, 0, {}]]], "name": "block_10_expand_BN"}, {"class_name": "ReLU", "config": {"name": "block_10_expand_relu", "dtype": "float32", "trainable": true, "max_value": 6.0, "threshold": 0.0, "negative_slope": 0.0}, "inbound_nodes": [[["block_10_expand_BN", 0, 0, {}]]], "name": "block_10_expand_relu"}, {"class_name": "DepthwiseConv2D", "config": {"depth_multiplier": 1, "name": "block_10_depthwise", "bias_regularizer": null, "bias_constraint": null, "dtype": "float32", "activation": "linear", "trainable": true, "depthwise_constraint": null, "data_format": "channels_last", "padding": "same", "strides": [1, 1], "dilation_rate": [1, 1], "depthwise_initializer": {"class_name": "GlorotUniform", "config": {"seed": null}}, "bias_initializer": {"class_name": "Zeros", "config": {}}, "depthwise_regularizer": null, "use_bias": false, "activity_regularizer": null, "kernel_size": [3, 3]}, "inbound_nodes": [[["block_10_expand_relu", 0, 0, {}]]], "name": "block_10_depthwise"}, {"class_name": "BatchNormalization", "config": {"gamma_initializer": {"class_name": "Ones", "config": {}}, "moving_mean_initializer": {"class_name": "Zeros", "config": {}}, "name": "block_10_depthwise_BN", "gamma_regularizer": null, "dtype": "float32", "trainable": true, "center": true, "moving_variance_initializer": {"class_name": "Ones", "config": {}}, "beta_initializer": {"class_name": "Zeros", "config": {}}, "scale": true, "epsilon": 0.001, "gamma_constraint": null, "beta_constraint": null, "beta_regularizer": null, "momentum": 0.999, "axis": [3]}, "inbound_nodes": [[["block_10_depthwise", 0, 0, {}]]], "name": "block_10_depthwise_BN"}, {"class_name": "ReLU", "config": {"name": "block_10_depthwise_relu", "dtype": "float32", "trainable": true, "max_value": 6.0, "threshold": 0.0, "negative_slope": 0.0}, "inbound_nodes": [[["block_10_depthwise_BN", 0, 0, {}]]], "name": "block_10_depthwise_relu"}, {"class_name": "Conv2D", "config": {"kernel_initializer": {"class_name": "GlorotUniform", "config": {"seed": null}}, "name": "block_10_project", "kernel_constraint": null, "bias_regularizer": null, "bias_constraint": null, "dtype": "float32", "activation": "linear", "trainable": true, "data_format": "channels_last", "padding": "same", "strides": [1, 1], "dilation_rate": [1, 1], "kernel_regularizer": null, "filters": 96, "bias_initializer": {"class_name": "Zeros", "config": {}}, "use_bias": false, "activity_regularizer": null, "kernel_size": [1, 1]}, "inbound_nodes": [[["block_10_depthwise_relu", 0, 0, {}]]], "name": "block_10_project"}, {"class_name": "BatchNormalization", "config": {"gamma_initializer": {"class_name": "Ones", "config": {}}, "moving_mean_initializer": {"class_name": "Zeros", "config": {}}, "name": "block_10_project_BN", "gamma_regularizer": null, "dtype": "float32", "trainable": true, "center": true, "moving_variance_initializer": {"class_name": "Ones", "config": {}}, "beta_initializer": {"class_name": "Zeros", "config": {}}, "scale": true, "epsilon": 0.001, "gamma_constraint": null, "beta_constraint": null, "beta_regularizer": null, "momentum": 0.999, "axis": [3]}, "inbound_nodes": [[["block_10_project", 0, 0, {}]]], "name": "block_10_project_BN"}, {"class_name": "Conv2D", "config": {"kernel_initializer": {"class_name": "GlorotUniform", "config": {"seed": null}}, "name": "block_11_expand", "kernel_constraint": null, "bias_regularizer": null, "bias_constraint": null, "dtype": "float32", "activation": "linear", "trainable": true, "data_format": "channels_last", "padding": "same", "strides": [1, 1], "dilation_rate": [1, 1], "kernel_regularizer": null, "filters": 576, "bias_initializer": {"class_name": "Zeros", "config": {}}, "use_bias": false, "activity_regularizer": null, "kernel_size": [1, 1]}, "inbound_nodes": [[["block_10_project_BN", 0, 0, {}]]], "name": "block_11_expand"}, {"class_name": "BatchNormalization", "config": {"gamma_initializer": {"class_name": "Ones", "config": {}}, "moving_mean_initializer": {"class_name": "Zeros", "config": {}}, "name": "block_11_expand_BN", "gamma_regularizer": null, "dtype": "float32", "trainable": true, "center": true, "moving_variance_initializer": {"class_name": "Ones", "config": {}}, "beta_initializer": {"class_name": "Zeros", "config": {}}, "scale": true, "epsilon": 0.001, "gamma_constraint": null, "beta_constraint": null, "beta_regularizer": null, "momentum": 0.999, "axis": [3]}, "inbound_nodes": [[["block_11_expand", 0, 0, {}]]], "name": "block_11_expand_BN"}, {"class_name": "ReLU", "config": {"name": "block_11_expand_relu", "dtype": "float32", "trainable": true, "max_value": 6.0, "threshold": 0.0, "negative_slope": 0.0}, "inbound_nodes": [[["block_11_expand_BN", 0, 0, {}]]], "name": "block_11_expand_relu"}, {"class_name": "DepthwiseConv2D", "config": {"depth_multiplier": 1, "name": "block_11_depthwise", "bias_regularizer": null, "bias_constraint": null, "dtype": "float32", "activation": "linear", "trainable": true, "depthwise_constraint": null, "data_format": "channels_last", "padding": "same", "strides": [1, 1], "dilation_rate": [1, 1], "depthwise_initializer": {"class_name": "GlorotUniform", "config": {"seed": null}}, "bias_initializer": {"class_name": "Zeros", "config": {}}, "depthwise_regularizer": null, "use_bias": false, "activity_regularizer": null, "kernel_size": [3, 3]}, "inbound_nodes": [[["block_11_expand_relu", 0, 0, {}]]], "name": "block_11_depthwise"}, {"class_name": "BatchNormalization", "config": {"gamma_initializer": {"class_name": "Ones", "config": {}}, "moving_mean_initializer": {"class_name": "Zeros", "config": {}}, "name": "block_11_depthwise_BN", "gamma_regularizer": null, "dtype": "float32", "trainable": true, "center": true, "moving_variance_initializer": {"class_name": "Ones", "config": {}}, "beta_initializer": {"class_name": "Zeros", "config": {}}, "scale": true, "epsilon": 0.001, "gamma_constraint": null, "beta_constraint": null, "beta_regularizer": null, "momentum": 0.999, "axis": [3]}, "inbound_nodes": [[["block_11_depthwise", 0, 0, {}]]], "name": "block_11_depthwise_BN"}, {"class_name": "ReLU", "config": {"name": "block_11_depthwise_relu", "dtype": "float32", "trainable": true, "max_value": 6.0, "threshold": 0.0, "negative_slope": 0.0}, "inbound_nodes": [[["block_11_depthwise_BN", 0, 0, {}]]], "name": "block_11_depthwise_relu"}, {"class_name": "Conv2D", "config": {"kernel_initializer": {"class_name": "GlorotUniform", "config": {"seed": null}}, "name": "block_11_project", "kernel_constraint": null, "bias_regularizer": null, "bias_constraint": null, "dtype": "float32", "activation": "linear", "trainable": true, "data_format": "channels_last", "padding": "same", "strides": [1, 1], "dilation_rate": [1, 1], "kernel_regularizer": null, "filters": 96, "bias_initializer": {"class_name": "Zeros", "config": {}}, "use_bias": false, "activity_regularizer": null, "kernel_size": [1, 1]}, "inbound_nodes": [[["block_11_depthwise_relu", 0, 0, {}]]], "name": "block_11_project"}, {"class_name": "BatchNormalization", "config": {"gamma_initializer": {"class_name": "Ones", "config": {}}, "moving_mean_initializer": {"class_name": "Zeros", "config": {}}, "name": "block_11_project_BN", "gamma_regularizer": null, "dtype": "float32", "trainable": true, "center": true, "moving_variance_initializer": {"class_name": "Ones", "config": {}}, "beta_initializer": {"class_name": "Zeros", "config": {}}, "scale": true, "epsilon": 0.001, "gamma_constraint": null, "beta_constraint": null, "beta_regularizer": null, "momentum": 0.999, "axis": [3]}, "inbound_nodes": [[["block_11_project", 0, 0, {}]]], "name": "block_11_project_BN"}, {"class_name": "Add", "config": {"dtype": "float32", "trainable": true, "name": "block_11_add"}, "inbound_nodes": [[["block_10_project_BN", 0, 0, {}], ["block_11_project_BN", 0, 0, {}]]], "name": "block_11_add"}, {"class_name": "Conv2D", "config": {"kernel_initializer": {"class_name": "GlorotUniform", "config": {"seed": null}}, "name": "block_12_expand", "kernel_constraint": null, "bias_regularizer": null, "bias_constraint": null, "dtype": "float32", "activation": "linear", "trainable": true, "data_format": "channels_last", "padding": "same", "strides": [1, 1], "dilation_rate": [1, 1], "kernel_regularizer": null, "filters": 576, "bias_initializer": {"class_name": "Zeros", "config": {}}, "use_bias": false, "activity_regularizer": null, "kernel_size": [1, 1]}, "inbound_nodes": [[["block_11_add", 0, 0, {}]]], "name": "block_12_expand"}, {"class_name": "BatchNormalization", "config": {"gamma_initializer": {"class_name": "Ones", "config": {}}, "moving_mean_initializer": {"class_name": "Zeros", "config": {}}, "name": "block_12_expand_BN", "gamma_regularizer": null, "dtype": "float32", "trainable": true, "center": true, "moving_variance_initializer": {"class_name": "Ones", "config": {}}, "beta_initializer": {"class_name": "Zeros", "config": {}}, "scale": true, "epsilon": 0.001, "gamma_constraint": null, "beta_constraint": null, "beta_regularizer": null, "momentum": 0.999, "axis": [3]}, "inbound_nodes": [[["block_12_expand", 0, 0, {}]]], "name": "block_12_expand_BN"}, {"class_name": "ReLU", "config": {"name": "block_12_expand_relu", "dtype": "float32", "trainable": true, "max_value": 6.0, "threshold": 0.0, "negative_slope": 0.0}, "inbound_nodes": [[["block_12_expand_BN", 0, 0, {}]]], "name": "block_12_expand_relu"}, {"class_name": "DepthwiseConv2D", "config": {"depth_multiplier": 1, "name": "block_12_depthwise", "bias_regularizer": null, "bias_constraint": null, "dtype": "float32", "activation": "linear", "trainable": true, "depthwise_constraint": null, "data_format": "channels_last", "padding": "same", "strides": [1, 1], "dilation_rate": [1, 1], "depthwise_initializer": {"class_name": "GlorotUniform", "config": {"seed": null}}, "bias_initializer": {"class_name": "Zeros", "config": {}}, "depthwise_regularizer": null, "use_bias": false, "activity_regularizer": null, "kernel_size": [3, 3]}, "inbound_nodes": [[["block_12_expand_relu", 0, 0, {}]]], "name": "block_12_depthwise"}, {"class_name": "BatchNormalization", "config": {"gamma_initializer": {"class_name": "Ones", "config": {}}, "moving_mean_initializer": {"class_name": "Zeros", "config": {}}, "name": "block_12_depthwise_BN", "gamma_regularizer": null, "dtype": "float32", "trainable": true, "center": true, "moving_variance_initializer": {"class_name": "Ones", "config": {}}, "beta_initializer": {"class_name": "Zeros", "config": {}}, "scale": true, "epsilon": 0.001, "gamma_constraint": null, "beta_constraint": null, "beta_regularizer": null, "momentum": 0.999, "axis": [3]}, "inbound_nodes": [[["block_12_depthwise", 0, 0, {}]]], "name": "block_12_depthwise_BN"}, {"class_name": "ReLU", "config": {"name": "block_12_depthwise_relu", "dtype": "float32", "trainable": true, "max_value": 6.0, "threshold": 0.0, "negative_slope": 0.0}, "inbound_nodes": [[["block_12_depthwise_BN", 0, 0, {}]]], "name": "block_12_depthwise_relu"}, {"class_name": "Conv2D", "config": {"kernel_initializer": {"class_name": "GlorotUniform", "config": {"seed": null}}, "name": "block_12_project", "kernel_constraint": null, "bias_regularizer": null, "bias_constraint": null, "dtype": "float32", "activation": "linear", "trainable": true, "data_format": "channels_last", "padding": "same", "strides": [1, 1], "dilation_rate": [1, 1], "kernel_regularizer": null, "filters": 96, "bias_initializer": {"class_name": "Zeros", "config": {}}, "use_bias": false, "activity_regularizer": null, "kernel_size": [1, 1]}, "inbound_nodes": [[["block_12_depthwise_relu", 0, 0, {}]]], "name": "block_12_project"}, {"class_name": "BatchNormalization", "config": {"gamma_initializer": {"class_name": "Ones", "config": {}}, "moving_mean_initializer": {"class_name": "Zeros", "config": {}}, "name": "block_12_project_BN", "gamma_regularizer": null, "dtype": "float32", "trainable": true, "center": true, "moving_variance_initializer": {"class_name": "Ones", "config": {}}, "beta_initializer": {"class_name": "Zeros", "config": {}}, "scale": true, "epsilon": 0.001, "gamma_constraint": null, "beta_constraint": null, "beta_regularizer": null, "momentum": 0.999, "axis": [3]}, "inbound_nodes": [[["block_12_project", 0, 0, {}]]], "name": "block_12_project_BN"}, {"class_name": "Add", "config": {"dtype": "float32", "trainable": true, "name": "block_12_add"}, "inbound_nodes": [[["block_11_add", 0, 0, {}], ["block_12_project_BN", 0, 0, {}]]], "name": "block_12_add"}, {"class_name": "Conv2D", "config": {"kernel_initializer": {"class_name": "GlorotUniform", "config": {"seed": null}}, "name": "block_13_expand", "kernel_constraint": null, "bias_regularizer": null, "bias_constraint": null, "dtype": "float32", "activation": "linear", "trainable": true, "data_format": "channels_last", "padding": "same", "strides": [1, 1], "dilation_rate": [1, 1], "kernel_regularizer": null, "filters": 576, "bias_initializer": {"class_name": "Zeros", "config": {}}, "use_bias": false, "activity_regularizer": null, "kernel_size": [1, 1]}, "inbound_nodes": [[["block_12_add", 0, 0, {}]]], "name": "block_13_expand"}, {"class_name": "BatchNormalization", "config": {"gamma_initializer": {"class_name": "Ones", "config": {}}, "moving_mean_initializer": {"class_name": "Zeros", "config": {}}, "name": "block_13_expand_BN", "gamma_regularizer": null, "dtype": "float32", "trainable": true, "center": true, "moving_variance_initializer": {"class_name": "Ones", "config": {}}, "beta_initializer": {"class_name": "Zeros", "config": {}}, "scale": true, "epsilon": 0.001, "gamma_constraint": null, "beta_constraint": null, "beta_regularizer": null, "momentum": 0.999, "axis": [3]}, "inbound_nodes": [[["block_13_expand", 0, 0, {}]]], "name": "block_13_expand_BN"}, {"class_name": "ReLU", "config": {"name": "block_13_expand_relu", "dtype": "float32", "trainable": true, "max_value": 6.0, "threshold": 0.0, "negative_slope": 0.0}, "inbound_nodes": [[["block_13_expand_BN", 0, 0, {}]]], "name": "block_13_expand_relu"}, {"class_name": "ZeroPadding2D", "config": {"padding": [[0, 1], [0, 1]], "dtype": "float32", "trainable": true, "name": "block_13_pad", "data_format": "channels_last"}, "inbound_nodes": [[["block_13_expand_relu", 0, 0, {}]]], "name": "block_13_pad"}, {"class_name": "DepthwiseConv2D", "config": {"depth_multiplier": 1, "name": "block_13_depthwise", "bias_regularizer": null, "bias_constraint": null, "dtype": "float32", "activation": "linear", "trainable": true, "depthwise_constraint": null, "data_format": "channels_last", "padding": "valid", "strides": [2, 2], "dilation_rate": [1, 1], "depthwise_initializer": {"class_name": "GlorotUniform", "config": {"seed": null}}, "bias_initializer": {"class_name": "Zeros", "config": {}}, "depthwise_regularizer": null, "use_bias": false, "activity_regularizer": null, "kernel_size": [3, 3]}, "inbound_nodes": [[["block_13_pad", 0, 0, {}]]], "name": "block_13_depthwise"}, {"class_name": "BatchNormalization", "config": {"gamma_initializer": {"class_name": "Ones", "config": {}}, "moving_mean_initializer": {"class_name": "Zeros", "config": {}}, "name": "block_13_depthwise_BN", "gamma_regularizer": null, "dtype": "float32", "trainable": true, "center": true, "moving_variance_initializer": {"class_name": "Ones", "config": {}}, "beta_initializer": {"class_name": "Zeros", "config": {}}, "scale": true, "epsilon": 0.001, "gamma_constraint": null, "beta_constraint": null, "beta_regularizer": null, "momentum": 0.999, "axis": [3]}, "inbound_nodes": [[["block_13_depthwise", 0, 0, {}]]], "name": "block_13_depthwise_BN"}, {"class_name": "ReLU", "config": {"name": "block_13_depthwise_relu", "dtype": "float32", "trainable": true, "max_value": 6.0, "threshold": 0.0, "negative_slope": 0.0}, "inbound_nodes": [[["block_13_depthwise_BN", 0, 0, {}]]], "name": "block_13_depthwise_relu"}, {"class_name": "Conv2D", "config": {"kernel_initializer": {"class_name": "GlorotUniform", "config": {"seed": null}}, "name": "block_13_project", "kernel_constraint": null, "bias_regularizer": null, "bias_constraint": null, "dtype": "float32", "activation": "linear", "trainable": true, "data_format": "channels_last", "padding": "same", "strides": [1, 1], "dilation_rate": [1, 1], "kernel_regularizer": null, "filters": 160, "bias_initializer": {"class_name": "Zeros", "config": {}}, "use_bias": false, "activity_regularizer": null, "kernel_size": [1, 1]}, "inbound_nodes": [[["block_13_depthwise_relu", 0, 0, {}]]], "name": "block_13_project"}, {"class_name": "BatchNormalization", "config": {"gamma_initializer": {"class_name": "Ones", "config": {}}, "moving_mean_initializer": {"class_name": "Zeros", "config": {}}, "name": "block_13_project_BN", "gamma_regularizer": null, "dtype": "float32", "trainable": true, "center": true, "moving_variance_initializer": {"class_name": "Ones", "config": {}}, "beta_initializer": {"class_name": "Zeros", "config": {}}, "scale": true, "epsilon": 0.001, "gamma_constraint": null, "beta_constraint": null, "beta_regularizer": null, "momentum": 0.999, "axis": [3]}, "inbound_nodes": [[["block_13_project", 0, 0, {}]]], "name": "block_13_project_BN"}, {"class_name": "Conv2D", "config": {"kernel_initializer": {"class_name": "GlorotUniform", "config": {"seed": null}}, "name": "block_14_expand", "kernel_constraint": null, "bias_regularizer": null, "bias_constraint": null, "dtype": "float32", "activation": "linear", "trainable": true, "data_format": "channels_last", "padding": "same", "strides": [1, 1], "dilation_rate": [1, 1], "kernel_regularizer": null, "filters": 960, "bias_initializer": {"class_name": "Zeros", "config": {}}, "use_bias": false, "activity_regularizer": null, "kernel_size": [1, 1]}, "inbound_nodes": [[["block_13_project_BN", 0, 0, {}]]], "name": "block_14_expand"}, {"class_name": "BatchNormalization", "config": {"gamma_initializer": {"class_name": "Ones", "config": {}}, "moving_mean_initializer": {"class_name": "Zeros", "config": {}}, "name": "block_14_expand_BN", "gamma_regularizer": null, "dtype": "float32", "trainable": true, "center": true, "moving_variance_initializer": {"class_name": "Ones", "config": {}}, "beta_initializer": {"class_name": "Zeros", "config": {}}, "scale": true, "epsilon": 0.001, "gamma_constraint": null, "beta_constraint": null, "beta_regularizer": null, "momentum": 0.999, "axis": [3]}, "inbound_nodes": [[["block_14_expand", 0, 0, {}]]], "name": "block_14_expand_BN"}, {"class_name": "ReLU", "config": {"name": "block_14_expand_relu", "dtype": "float32", "trainable": true, "max_value": 6.0, "threshold": 0.0, "negative_slope": 0.0}, "inbound_nodes": [[["block_14_expand_BN", 0, 0, {}]]], "name": "block_14_expand_relu"}, {"class_name": "DepthwiseConv2D", "config": {"depth_multiplier": 1, "name": "block_14_depthwise", "bias_regularizer": null, "bias_constraint": null, "dtype": "float32", "activation": "linear", "trainable": true, "depthwise_constraint": null, "data_format": "channels_last", "padding": "same", "strides": [1, 1], "dilation_rate": [1, 1], "depthwise_initializer": {"class_name": "GlorotUniform", "config": {"seed": null}}, "bias_initializer": {"class_name": "Zeros", "config": {}}, "depthwise_regularizer": null, "use_bias": false, "activity_regularizer": null, "kernel_size": [3, 3]}, "inbound_nodes": [[["block_14_expand_relu", 0, 0, {}]]], "name": "block_14_depthwise"}, {"class_name": "BatchNormalization", "config": {"gamma_initializer": {"class_name": "Ones", "config": {}}, "moving_mean_initializer": {"class_name": "Zeros", "config": {}}, "name": "block_14_depthwise_BN", "gamma_regularizer": null, "dtype": "float32", "trainable": true, "center": true, "moving_variance_initializer": {"class_name": "Ones", "config": {}}, "beta_initializer": {"class_name": "Zeros", "config": {}}, "scale": true, "epsilon": 0.001, "gamma_constraint": null, "beta_constraint": null, "beta_regularizer": null, "momentum": 0.999, "axis": [3]}, "inbound_nodes": [[["block_14_depthwise", 0, 0, {}]]], "name": "block_14_depthwise_BN"}, {"class_name": "ReLU", "config": {"name": "block_14_depthwise_relu", "dtype": "float32", "trainable": true, "max_value": 6.0, "threshold": 0.0, "negative_slope": 0.0}, "inbound_nodes": [[["block_14_depthwise_BN", 0, 0, {}]]], "name": "block_14_depthwise_relu"}, {"class_name": "Conv2D", "config": {"kernel_initializer": {"class_name": "GlorotUniform", "config": {"seed": null}}, "name": "block_14_project", "kernel_constraint": null, "bias_regularizer": null, "bias_constraint": null, "dtype": "float32", "activation": "linear", "trainable": true, "data_format": "channels_last", "padding": "same", "strides": [1, 1], "dilation_rate": [1, 1], "kernel_regularizer": null, "filters": 160, "bias_initializer": {"class_name": "Zeros", "config": {}}, "use_bias": false, "activity_regularizer": null, "kernel_size": [1, 1]}, "inbound_nodes": [[["block_14_depthwise_relu", 0, 0, {}]]], "name": "block_14_project"}, {"class_name": "BatchNormalization", "config": {"gamma_initializer": {"class_name": "Ones", "config": {}}, "moving_mean_initializer": {"class_name": "Zeros", "config": {}}, "name": "block_14_project_BN", "gamma_regularizer": null, "dtype": "float32", "trainable": true, "center": true, "moving_variance_initializer": {"class_name": "Ones", "config": {}}, "beta_initializer": {"class_name": "Zeros", "config": {}}, "scale": true, "epsilon": 0.001, "gamma_constraint": null, "beta_constraint": null, "beta_regularizer": null, "momentum": 0.999, "axis": [3]}, "inbound_nodes": [[["block_14_project", 0, 0, {}]]], "name": "block_14_project_BN"}, {"class_name": "Add", "config": {"dtype": "float32", "trainable": true, "name": "block_14_add"}, "inbound_nodes": [[["block_13_project_BN", 0, 0, {}], ["block_14_project_BN", 0, 0, {}]]], "name": "block_14_add"}, {"class_name": "Conv2D", "config": {"kernel_initializer": {"class_name": "GlorotUniform", "config": {"seed": null}}, "name": "block_15_expand", "kernel_constraint": null, "bias_regularizer": null, "bias_constraint": null, "dtype": "float32", "activation": "linear", "trainable": true, "data_format": "channels_last", "padding": "same", "strides": [1, 1], "dilation_rate": [1, 1], "kernel_regularizer": null, "filters": 960, "bias_initializer": {"class_name": "Zeros", "config": {}}, "use_bias": false, "activity_regularizer": null, "kernel_size": [1, 1]}, "inbound_nodes": [[["block_14_add", 0, 0, {}]]], "name": "block_15_expand"}, {"class_name": "BatchNormalization", "config": {"gamma_initializer": {"class_name": "Ones", "config": {}}, "moving_mean_initializer": {"class_name": "Zeros", "config": {}}, "name": "block_15_expand_BN", "gamma_regularizer": null, "dtype": "float32", "trainable": true, "center": true, "moving_variance_initializer": {"class_name": "Ones", "config": {}}, "beta_initializer": {"class_name": "Zeros", "config": {}}, "scale": true, "epsilon": 0.001, "gamma_constraint": null, "beta_constraint": null, "beta_regularizer": null, "momentum": 0.999, "axis": [3]}, "inbound_nodes": [[["block_15_expand", 0, 0, {}]]], "name": "block_15_expand_BN"}, {"class_name": "ReLU", "config": {"name": "block_15_expand_relu", "dtype": "float32", "trainable": true, "max_value": 6.0, "threshold": 0.0, "negative_slope": 0.0}, "inbound_nodes": [[["block_15_expand_BN", 0, 0, {}]]], "name": "block_15_expand_relu"}, {"class_name": "DepthwiseConv2D", "config": {"depth_multiplier": 1, "name": "block_15_depthwise", "bias_regularizer": null, "bias_constraint": null, "dtype": "float32", "activation": "linear", "trainable": true, "depthwise_constraint": null, "data_format": "channels_last", "padding": "same", "strides": [1, 1], "dilation_rate": [1, 1], "depthwise_initializer": {"class_name": "GlorotUniform", "config": {"seed": null}}, "bias_initializer": {"class_name": "Zeros", "config": {}}, "depthwise_regularizer": null, "use_bias": false, "activity_regularizer": null, "kernel_size": [3, 3]}, "inbound_nodes": [[["block_15_expand_relu", 0, 0, {}]]], "name": "block_15_depthwise"}, {"class_name": "BatchNormalization", "config": {"gamma_initializer": {"class_name": "Ones", "config": {}}, "moving_mean_initializer": {"class_name": "Zeros", "config": {}}, "name": "block_15_depthwise_BN", "gamma_regularizer": null, "dtype": "float32", "trainable": true, "center": true, "moving_variance_initializer": {"class_name": "Ones", "config": {}}, "beta_initializer": {"class_name": "Zeros", "config": {}}, "scale": true, "epsilon": 0.001, "gamma_constraint": null, "beta_constraint": null, "beta_regularizer": null, "momentum": 0.999, "axis": [3]}, "inbound_nodes": [[["block_15_depthwise", 0, 0, {}]]], "name": "block_15_depthwise_BN"}, {"class_name": "ReLU", "config": {"name": "block_15_depthwise_relu", "dtype": "float32", "trainable": true, "max_value": 6.0, "threshold": 0.0, "negative_slope": 0.0}, "inbound_nodes": [[["block_15_depthwise_BN", 0, 0, {}]]], "name": "block_15_depthwise_relu"}, {"class_name": "Conv2D", "config": {"kernel_initializer": {"class_name": "GlorotUniform", "config": {"seed": null}}, "name": "block_15_project", "kernel_constraint": null, "bias_regularizer": null, "bias_constraint": null, "dtype": "float32", "activation": "linear", "trainable": true, "data_format": "channels_last", "padding": "same", "strides": [1, 1], "dilation_rate": [1, 1], "kernel_regularizer": null, "filters": 160, "bias_initializer": {"class_name": "Zeros", "config": {}}, "use_bias": false, "activity_regularizer": null, "kernel_size": [1, 1]}, "inbound_nodes": [[["block_15_depthwise_relu", 0, 0, {}]]], "name": "block_15_project"}, {"class_name": "BatchNormalization", "config": {"gamma_initializer": {"class_name": "Ones", "config": {}}, "moving_mean_initializer": {"class_name": "Zeros", "config": {}}, "name": "block_15_project_BN", "gamma_regularizer": null, "dtype": "float32", "trainable": true, "center": true, "moving_variance_initializer": {"class_name": "Ones", "config": {}}, "beta_initializer": {"class_name": "Zeros", "config": {}}, "scale": true, "epsilon": 0.001, "gamma_constraint": null, "beta_constraint": null, "beta_regularizer": null, "momentum": 0.999, "axis": [3]}, "inbound_nodes": [[["block_15_project", 0, 0, {}]]], "name": "block_15_project_BN"}, {"class_name": "Add", "config": {"dtype": "float32", "trainable": true, "name": "block_15_add"}, "inbound_nodes": [[["block_14_add", 0, 0, {}], ["block_15_project_BN", 0, 0, {}]]], "name": "block_15_add"}, {"class_name": "Conv2D", "config": {"kernel_initializer": {"class_name": "GlorotUniform", "config": {"seed": null}}, "name": "block_16_expand", "kernel_constraint": null, "bias_regularizer": null, "bias_constraint": null, "dtype": "float32", "activation": "linear", "trainable": true, "data_format": "channels_last", "padding": "same", "strides": [1, 1], "dilation_rate": [1, 1], "kernel_regularizer": null, "filters": 960, "bias_initializer": {"class_name": "Zeros", "config": {}}, "use_bias": false, "activity_regularizer": null, "kernel_size": [1, 1]}, "inbound_nodes": [[["block_15_add", 0, 0, {}]]], "name": "block_16_expand"}, {"class_name": "BatchNormalization", "config": {"gamma_initializer": {"class_name": "Ones", "config": {}}, "moving_mean_initializer": {"class_name": "Zeros", "config": {}}, "name": "block_16_expand_BN", "gamma_regularizer": null, "dtype": "float32", "trainable": true, "center": true, "moving_variance_initializer": {"class_name": "Ones", "config": {}}, "beta_initializer": {"class_name": "Zeros", "config": {}}, "scale": true, "epsilon": 0.001, "gamma_constraint": null, "beta_constraint": null, "beta_regularizer": null, "momentum": 0.999, "axis": [3]}, "inbound_nodes": [[["block_16_expand", 0, 0, {}]]], "name": "block_16_expand_BN"}, {"class_name": "ReLU", "config": {"name": "block_16_expand_relu", "dtype": "float32", "trainable": true, "max_value": 6.0, "threshold": 0.0, "negative_slope": 0.0}, "inbound_nodes": [[["block_16_expand_BN", 0, 0, {}]]], "name": "block_16_expand_relu"}, {"class_name": "DepthwiseConv2D", "config": {"depth_multiplier": 1, "name": "block_16_depthwise", "bias_regularizer": null, "bias_constraint": null, "dtype": "float32", "activation": "linear", "trainable": true, "depthwise_constraint": null, "data_format": "channels_last", "padding": "same", "strides": [1, 1], "dilation_rate": [1, 1], "depthwise_initializer": {"class_name": "GlorotUniform", "config": {"seed": null}}, "bias_initializer": {"class_name": "Zeros", "config": {}}, "depthwise_regularizer": null, "use_bias": false, "activity_regularizer": null, "kernel_size": [3, 3]}, "inbound_nodes": [[["block_16_expand_relu", 0, 0, {}]]], "name": "block_16_depthwise"}, {"class_name": "BatchNormalization", "config": {"gamma_initializer": {"class_name": "Ones", "config": {}}, "moving_mean_initializer": {"class_name": "Zeros", "config": {}}, "name": "block_16_depthwise_BN", "gamma_regularizer": null, "dtype": "float32", "trainable": true, "center": true, "moving_variance_initializer": {"class_name": "Ones", "config": {}}, "beta_initializer": {"class_name": "Zeros", "config": {}}, "scale": true, "epsilon": 0.001, "gamma_constraint": null, "beta_constraint": null, "beta_regularizer": null, "momentum": 0.999, "axis": [3]}, "inbound_nodes": [[["block_16_depthwise", 0, 0, {}]]], "name": "block_16_depthwise_BN"}, {"class_name": "ReLU", "config": {"name": "block_16_depthwise_relu", "dtype": "float32", "trainable": true, "max_value": 6.0, "threshold": 0.0, "negative_slope": 0.0}, "inbound_nodes": [[["block_16_depthwise_BN", 0, 0, {}]]], "name": "block_16_depthwise_relu"}, {"class_name": "Conv2D", "config": {"kernel_initializer": {"class_name": "GlorotUniform", "config": {"seed": null}}, "name": "block_16_project", "kernel_constraint": null, "bias_regularizer": null, "bias_constraint": null, "dtype": "float32", "activation": "linear", "trainable": true, "data_format": "channels_last", "padding": "same", "strides": [1, 1], "dilation_rate": [1, 1], "kernel_regularizer": null, "filters": 320, "bias_initializer": {"class_name": "Zeros", "config": {}}, "use_bias": false, "activity_regularizer": null, "kernel_size": [1, 1]}, "inbound_nodes": [[["block_16_depthwise_relu", 0, 0, {}]]], "name": "block_16_project"}, {"class_name": "BatchNormalization", "config": {"gamma_initializer": {"class_name": "Ones", "config": {}}, "moving_mean_initializer": {"class_name": "Zeros", "config": {}}, "name": "block_16_project_BN", "gamma_regularizer": null, "dtype": "float32", "trainable": true, "center": true, "moving_variance_initializer": {"class_name": "Ones", "config": {}}, "beta_initializer": {"class_name": "Zeros", "config": {}}, "scale": true, "epsilon": 0.001, "gamma_constraint": null, "beta_constraint": null, "beta_regularizer": null, "momentum": 0.999, "axis": [3]}, "inbound_nodes": [[["block_16_project", 0, 0, {}]]], "name": "block_16_project_BN"}, {"class_name": "Conv2D", "config": {"kernel_initializer": {"class_name": "GlorotUniform", "config": {"seed": null}}, "name": "Conv_1", "kernel_constraint": null, "bias_regularizer": null, "bias_constraint": null, "dtype": "float32", "activation": "linear", "trainable": true, "data_format": "channels_last", "padding": "valid", "strides": [1, 1], "dilation_rate": [1, 1], "kernel_regularizer": null, "filters": 1280, "bias_initializer": {"class_name": "Zeros", "config": {}}, "use_bias": false, "activity_regularizer": null, "kernel_size": [1, 1]}, "inbound_nodes": [[["block_16_project_BN", 0, 0, {}]]], "name": "Conv_1"}, {"class_name": "BatchNormalization", "config": {"gamma_initializer": {"class_name": "Ones", "config": {}}, "moving_mean_initializer": {"class_name": "Zeros", "config": {}}, "name": "Conv_1_bn", "gamma_regularizer": null, "dtype": "float32", "trainable": true, "center": true, "moving_variance_initializer": {"class_name": "Ones", "config": {}}, "beta_initializer": {"class_name": "Zeros", "config": {}}, "scale": true, "epsilon": 0.001, "gamma_constraint": null, "beta_constraint": null, "beta_regularizer": null, "momentum": 0.999, "axis": [3]}, "inbound_nodes": [[["Conv_1", 0, 0, {}]]], "name": "Conv_1_bn"}, {"class_name": "ReLU", "config": {"name": "out_relu", "dtype": "float32", "trainable": true, "max_value": 6.0, "threshold": 0.0, "negative_slope": 0.0}, "inbound_nodes": [[["Conv_1_bn", 0, 0, {}]]], "name": "out_relu"}, {"class_name": "GlobalAveragePooling2D", "config": {"dtype": "float32", "trainable": true, "name": "global_average_pooling2d", "data_format": "channels_last"}, "inbound_nodes": [[["out_relu", 0, 0, {}]]], "name": "global_average_pooling2d"}, {"class_name": "Dense", "config": {"kernel_initializer": {"class_name": "GlorotUniform", "config": {"seed": null}}, "name": "dense", "kernel_constraint": null, "bias_regularizer": null, "bias_constraint": null, "dtype": "float32", "activation": "relu", "trainable": true, "kernel_regularizer": null, "bias_initializer": {"class_name": "Zeros", "config": {}}, "units": 1024, "use_bias": true, "activity_regularizer": null}, "inbound_nodes": [[["global_average_pooling2d", 0, 0, {}]]], "name": "dense"}, {"class_name": "Dense", "config": {"kernel_initializer": {"class_name": "GlorotUniform", "config": {"seed": null}}, "name": "dense_1", "kernel_constraint": null, "bias_regularizer": null, "bias_constraint": null, "dtype": "float32", "activation": "softmax", "trainable": true, "kernel_regularizer": null, "bias_initializer": {"class_name": "Zeros", "config": {}}, "units": 9, "use_bias": true, "activity_regularizer": null}, "inbound_nodes": [[["dense", 0, 0, {}]]], "name": "dense_1"}], "input_layers": [["input_1", 0, 0]], "output_layers": [["dense_1", 0, 0]], "name": "model"}}, "training_config": {"loss": "categorical_crossentropy", "loss_weights": null, "metrics": ["accuracy"], "optimizer_config": {"class_name": "Adam", "config": {"beta_1": 0.8999999761581421, "beta_2": 0.9990000128746033, "name": "Adam", "decay": 0.0, "epsilon": 1e-07, "learning_rate": 0.0010000000474974513, "amsgrad": false}}, "weighted_metrics": null, "sample_weight_mode": null}}, "weightsManifest": [{"paths": ["group1-shard1of4.bin", "group1-shard2of4.bin", "group1-shard3of4.bin", "group1-shard4of4.bin"], "weights": [{"name": "Conv1/kernel", "shape": [3, 3, 3, 32], "dtype": "float32"}, {"name": "Conv_1/kernel", "shape": [1, 1, 320, 1280], "dtype": "float32"}, {"name": "Conv_1_bn/gamma", "shape": [1280], "dtype": "float32"}, {"name": "Conv_1_bn/beta", "shape": [1280], "dtype": "float32"}, {"name": "Conv_1_bn/moving_mean", "shape": [1280], "dtype": "float32"}, {"name": "Conv_1_bn/moving_variance", "shape": [1280], "dtype": "float32"}, {"name": "block_10_depthwise/depthwise_kernel", "shape": [3, 3, 384, 1], "dtype": "float32"}, {"name": "block_10_depthwise_BN/gamma", "shape": [384], "dtype": "float32"}, {"name": "block_10_depthwise_BN/beta", "shape": [384], "dtype": "float32"}, {"name": "block_10_depthwise_BN/moving_mean", "shape": [384], "dtype": "float32"}, {"name": "block_10_depthwise_BN/moving_variance", "shape": [384], "dtype": "float32"}, {"name": "block_10_expand/kernel", "shape": [1, 1, 64, 384], "dtype": "float32"}, {"name": "block_10_expand_BN/gamma", "shape": [384], "dtype": "float32"}, {"name": "block_10_expand_BN/beta", "shape": [384], "dtype": "float32"}, {"name": "block_10_expand_BN/moving_mean", "shape": [384], "dtype": "float32"}, {"name": "block_10_expand_BN/moving_variance", "shape": [384], "dtype": "float32"}, {"name": "block_10_project/kernel", "shape": [1, 1, 384, 96], "dtype": "float32"}, {"name": "block_10_project_BN/gamma", "shape": [96], "dtype": "float32"}, {"name": "block_10_project_BN/beta", "shape": [96], "dtype": "float32"}, {"name": "block_10_project_BN/moving_mean", "shape": [96], "dtype": "float32"}, {"name": "block_10_project_BN/moving_variance", "shape": [96], "dtype": "float32"}, {"name": "block_11_depthwise/depthwise_kernel", "shape": [3, 3, 576, 1], "dtype": "float32"}, {"name": "block_11_depthwise_BN/gamma", "shape": [576], "dtype": "float32"}, {"name": "block_11_depthwise_BN/beta", "shape": [576], "dtype": "float32"}, {"name": "block_11_depthwise_BN/moving_mean", "shape": [576], "dtype": "float32"}, {"name": "block_11_depthwise_BN/moving_variance", "shape": [576], "dtype": "float32"}, {"name": "block_11_expand/kernel", "shape": [1, 1, 96, 576], "dtype": "float32"}, {"name": "block_11_expand_BN/gamma", "shape": [576], "dtype": "float32"}, {"name": "block_11_expand_BN/beta", "shape": [576], "dtype": "float32"}, {"name": "block_11_expand_BN/moving_mean", "shape": [576], "dtype": "float32"}, {"name": "block_11_expand_BN/moving_variance", "shape": [576], "dtype": "float32"}, {"name": "block_11_project/kernel", "shape": [1, 1, 576, 96], "dtype": "float32"}, {"name": "block_11_project_BN/gamma", "shape": [96], "dtype": "float32"}, {"name": "block_11_project_BN/beta", "shape": [96], "dtype": "float32"}, {"name": "block_11_project_BN/moving_mean", "shape": [96], "dtype": "float32"}, {"name": "block_11_project_BN/moving_variance", "shape": [96], "dtype": "float32"}, {"name": "block_12_depthwise/depthwise_kernel", "shape": [3, 3, 576, 1], "dtype": "float32"}, {"name": "block_12_depthwise_BN/gamma", "shape": [576], "dtype": "float32"}, {"name": "block_12_depthwise_BN/beta", "shape": [576], "dtype": "float32"}, {"name": "block_12_depthwise_BN/moving_mean", "shape": [576], "dtype": "float32"}, {"name": "block_12_depthwise_BN/moving_variance", "shape": [576], "dtype": "float32"}, {"name": "block_12_expand/kernel", "shape": [1, 1, 96, 576], "dtype": "float32"}, {"name": "block_12_expand_BN/gamma", "shape": [576], "dtype": "float32"}, {"name": "block_12_expand_BN/beta", "shape": [576], "dtype": "float32"}, {"name": "block_12_expand_BN/moving_mean", "shape": [576], "dtype": "float32"}, {"name": "block_12_expand_BN/moving_variance", "shape": [576], "dtype": "float32"}, {"name": "block_12_project/kernel", "shape": [1, 1, 576, 96], "dtype": "float32"}, {"name": "block_12_project_BN/gamma", "shape": [96], "dtype": "float32"}, {"name": "block_12_project_BN/beta", "shape": [96], "dtype": "float32"}, {"name": "block_12_project_BN/moving_mean", "shape": [96], "dtype": "float32"}, {"name": "block_12_project_BN/moving_variance", "shape": [96], "dtype": "float32"}, {"name": "block_13_depthwise/depthwise_kernel", "shape": [3, 3, 576, 1], "dtype": "float32"}, {"name": "block_13_depthwise_BN/gamma", "shape": [576], "dtype": "float32"}, {"name": "block_13_depthwise_BN/beta", "shape": [576], "dtype": "float32"}, {"name": "block_13_depthwise_BN/moving_mean", "shape": [576], "dtype": "float32"}, {"name": "block_13_depthwise_BN/moving_variance", "shape": [576], "dtype": "float32"}, {"name": "block_13_expand/kernel", "shape": [1, 1, 96, 576], "dtype": "float32"}, {"name": "block_13_expand_BN/gamma", "shape": [576], "dtype": "float32"}, {"name": "block_13_expand_BN/beta", "shape": [576], "dtype": "float32"}, {"name": "block_13_expand_BN/moving_mean", "shape": [576], "dtype": "float32"}, {"name": "block_13_expand_BN/moving_variance", "shape": [576], "dtype": "float32"}, {"name": "block_13_project/kernel", "shape": [1, 1, 576, 160], "dtype": "float32"}, {"name": "block_13_project_BN/gamma", "shape": [160], "dtype": "float32"}, {"name": "block_13_project_BN/beta", "shape": [160], "dtype": "float32"}, {"name": "block_13_project_BN/moving_mean", "shape": [160], "dtype": "float32"}, {"name": "block_13_project_BN/moving_variance", "shape": [160], "dtype": "float32"}, {"name": "block_14_depthwise/depthwise_kernel", "shape": [3, 3, 960, 1], "dtype": "float32"}, {"name": "block_14_depthwise_BN/gamma", "shape": [960], "dtype": "float32"}, {"name": "block_14_depthwise_BN/beta", "shape": [960], "dtype": "float32"}, {"name": "block_14_depthwise_BN/moving_mean", "shape": [960], "dtype": "float32"}, {"name": "block_14_depthwise_BN/moving_variance", "shape": [960], "dtype": "float32"}, {"name": "block_14_expand/kernel", "shape": [1, 1, 160, 960], "dtype": "float32"}, {"name": "block_14_expand_BN/gamma", "shape": [960], "dtype": "float32"}, {"name": "block_14_expand_BN/beta", "shape": [960], "dtype": "float32"}, {"name": "block_14_expand_BN/moving_mean", "shape": [960], "dtype": "float32"}, {"name": "block_14_expand_BN/moving_variance", "shape": [960], "dtype": "float32"}, {"name": "block_14_project/kernel", "shape": [1, 1, 960, 160], "dtype": "float32"}, {"name": "block_14_project_BN/gamma", "shape": [160], "dtype": "float32"}, {"name": "block_14_project_BN/beta", "shape": [160], "dtype": "float32"}, {"name": "block_14_project_BN/moving_mean", "shape": [160], "dtype": "float32"}, {"name": "block_14_project_BN/moving_variance", "shape": [160], "dtype": "float32"}, {"name": "block_15_depthwise/depthwise_kernel", "shape": [3, 3, 960, 1], "dtype": "float32"}, {"name": "block_15_depthwise_BN/gamma", "shape": [960], "dtype": "float32"}, {"name": "block_15_depthwise_BN/beta", "shape": [960], "dtype": "float32"}, {"name": "block_15_depthwise_BN/moving_mean", "shape": [960], "dtype": "float32"}, {"name": "block_15_depthwise_BN/moving_variance", "shape": [960], "dtype": "float32"}, {"name": "block_15_expand/kernel", "shape": [1, 1, 160, 960], "dtype": "float32"}, {"name": "block_15_expand_BN/gamma", "shape": [960], "dtype": "float32"}, {"name": "block_15_expand_BN/beta", "shape": [960], "dtype": "float32"}, {"name": "block_15_expand_BN/moving_mean", "shape": [960], "dtype": "float32"}, {"name": "block_15_expand_BN/moving_variance", "shape": [960], "dtype": "float32"}, {"name": "block_15_project/kernel", "shape": [1, 1, 960, 160], "dtype": "float32"}, {"name": "block_15_project_BN/gamma", "shape": [160], "dtype": "float32"}, {"name": "block_15_project_BN/beta", "shape": [160], "dtype": "float32"}, {"name": "block_15_project_BN/moving_mean", "shape": [160], "dtype": "float32"}, {"name": "block_15_project_BN/moving_variance", "shape": [160], "dtype": "float32"}, {"name": "block_16_depthwise/depthwise_kernel", "shape": [3, 3, 960, 1], "dtype": "float32"}, {"name": "block_16_depthwise_BN/gamma", "shape": [960], "dtype": "float32"}, {"name": "block_16_depthwise_BN/beta", "shape": [960], "dtype": "float32"}, {"name": "block_16_depthwise_BN/moving_mean", "shape": [960], "dtype": "float32"}, {"name": "block_16_depthwise_BN/moving_variance", "shape": [960], "dtype": "float32"}, {"name": "block_16_expand/kernel", "shape": [1, 1, 160, 960], "dtype": "float32"}, {"name": "block_16_expand_BN/gamma", "shape": [960], "dtype": "float32"}, {"name": "block_16_expand_BN/beta", "shape": [960], "dtype": "float32"}, {"name": "block_16_expand_BN/moving_mean", "shape": [960], "dtype": "float32"}, {"name": "block_16_expand_BN/moving_variance", "shape": [960], "dtype": "float32"}, {"name": "block_16_project/kernel", "shape": [1, 1, 960, 320], "dtype": "float32"}, {"name": "block_16_project_BN/gamma", "shape": [320], "dtype": "float32"}, {"name": "block_16_project_BN/beta", "shape": [320], "dtype": "float32"}, {"name": "block_16_project_BN/moving_mean", "shape": [320], "dtype": "float32"}, {"name": "block_16_project_BN/moving_variance", "shape": [320], "dtype": "float32"}, {"name": "block_1_depthwise/depthwise_kernel", "shape": [3, 3, 96, 1], "dtype": "float32"}, {"name": "block_1_depthwise_BN/gamma", "shape": [96], "dtype": "float32"}, {"name": "block_1_depthwise_BN/beta", "shape": [96], "dtype": "float32"}, {"name": "block_1_depthwise_BN/moving_mean", "shape": [96], "dtype": "float32"}, {"name": "block_1_depthwise_BN/moving_variance", "shape": [96], "dtype": "float32"}, {"name": "block_1_expand/kernel", "shape": [1, 1, 16, 96], "dtype": "float32"}, {"name": "block_1_expand_BN/gamma", "shape": [96], "dtype": "float32"}, {"name": "block_1_expand_BN/beta", "shape": [96], "dtype": "float32"}, {"name": "block_1_expand_BN/moving_mean", "shape": [96], "dtype": "float32"}, {"name": "block_1_expand_BN/moving_variance", "shape": [96], "dtype": "float32"}, {"name": "block_1_project/kernel", "shape": [1, 1, 96, 24], "dtype": "float32"}, {"name": "block_1_project_BN/gamma", "shape": [24], "dtype": "float32"}, {"name": "block_1_project_BN/beta", "shape": [24], "dtype": "float32"}, {"name": "block_1_project_BN/moving_mean", "shape": [24], "dtype": "float32"}, {"name": "block_1_project_BN/moving_variance", "shape": [24], "dtype": "float32"}, {"name": "block_2_depthwise/depthwise_kernel", "shape": [3, 3, 144, 1], "dtype": "float32"}, {"name": "block_2_depthwise_BN/gamma", "shape": [144], "dtype": "float32"}, {"name": "block_2_depthwise_BN/beta", "shape": [144], "dtype": "float32"}, {"name": "block_2_depthwise_BN/moving_mean", "shape": [144], "dtype": "float32"}, {"name": "block_2_depthwise_BN/moving_variance", "shape": [144], "dtype": "float32"}, {"name": "block_2_expand/kernel", "shape": [1, 1, 24, 144], "dtype": "float32"}, {"name": "block_2_expand_BN/gamma", "shape": [144], "dtype": "float32"}, {"name": "block_2_expand_BN/beta", "shape": [144], "dtype": "float32"}, {"name": "block_2_expand_BN/moving_mean", "shape": [144], "dtype": "float32"}, {"name": "block_2_expand_BN/moving_variance", "shape": [144], "dtype": "float32"}, {"name": "block_2_project/kernel", "shape": [1, 1, 144, 24], "dtype": "float32"}, {"name": "block_2_project_BN/gamma", "shape": [24], "dtype": "float32"}, {"name": "block_2_project_BN/beta", "shape": [24], "dtype": "float32"}, {"name": "block_2_project_BN/moving_mean", "shape": [24], "dtype": "float32"}, {"name": "block_2_project_BN/moving_variance", "shape": [24], "dtype": "float32"}, {"name": "block_3_depthwise/depthwise_kernel", "shape": [3, 3, 144, 1], "dtype": "float32"}, {"name": "block_3_depthwise_BN/gamma", "shape": [144], "dtype": "float32"}, {"name": "block_3_depthwise_BN/beta", "shape": [144], "dtype": "float32"}, {"name": "block_3_depthwise_BN/moving_mean", "shape": [144], "dtype": "float32"}, {"name": "block_3_depthwise_BN/moving_variance", "shape": [144], "dtype": "float32"}, {"name": "block_3_expand/kernel", "shape": [1, 1, 24, 144], "dtype": "float32"}, {"name": "block_3_expand_BN/gamma", "shape": [144], "dtype": "float32"}, {"name": "block_3_expand_BN/beta", "shape": [144], "dtype": "float32"}, {"name": "block_3_expand_BN/moving_mean", "shape": [144], "dtype": "float32"}, {"name": "block_3_expand_BN/moving_variance", "shape": [144], "dtype": "float32"}, {"name": "block_3_project/kernel", "shape": [1, 1, 144, 32], "dtype": "float32"}, {"name": "block_3_project_BN/gamma", "shape": [32], "dtype": "float32"}, {"name": "block_3_project_BN/beta", "shape": [32], "dtype": "float32"}, {"name": "block_3_project_BN/moving_mean", "shape": [32], "dtype": "float32"}, {"name": "block_3_project_BN/moving_variance", "shape": [32], "dtype": "float32"}, {"name": "block_4_depthwise/depthwise_kernel", "shape": [3, 3, 192, 1], "dtype": "float32"}, {"name": "block_4_depthwise_BN/gamma", "shape": [192], "dtype": "float32"}, {"name": "block_4_depthwise_BN/beta", "shape": [192], "dtype": "float32"}, {"name": "block_4_depthwise_BN/moving_mean", "shape": [192], "dtype": "float32"}, {"name": "block_4_depthwise_BN/moving_variance", "shape": [192], "dtype": "float32"}, {"name": "block_4_expand/kernel", "shape": [1, 1, 32, 192], "dtype": "float32"}, {"name": "block_4_expand_BN/gamma", "shape": [192], "dtype": "float32"}, {"name": "block_4_expand_BN/beta", "shape": [192], "dtype": "float32"}, {"name": "block_4_expand_BN/moving_mean", "shape": [192], "dtype": "float32"}, {"name": "block_4_expand_BN/moving_variance", "shape": [192], "dtype": "float32"}, {"name": "block_4_project/kernel", "shape": [1, 1, 192, 32], "dtype": "float32"}, {"name": "block_4_project_BN/gamma", "shape": [32], "dtype": "float32"}, {"name": "block_4_project_BN/beta", "shape": [32], "dtype": "float32"}, {"name": "block_4_project_BN/moving_mean", "shape": [32], "dtype": "float32"}, {"name": "block_4_project_BN/moving_variance", "shape": [32], "dtype": "float32"}, {"name": "block_5_depthwise/depthwise_kernel", "shape": [3, 3, 192, 1], "dtype": "float32"}, {"name": "block_5_depthwise_BN/gamma", "shape": [192], "dtype": "float32"}, {"name": "block_5_depthwise_BN/beta", "shape": [192], "dtype": "float32"}, {"name": "block_5_depthwise_BN/moving_mean", "shape": [192], "dtype": "float32"}, {"name": "block_5_depthwise_BN/moving_variance", "shape": [192], "dtype": "float32"}, {"name": "block_5_expand/kernel", "shape": [1, 1, 32, 192], "dtype": "float32"}, {"name": "block_5_expand_BN/gamma", "shape": [192], "dtype": "float32"}, {"name": "block_5_expand_BN/beta", "shape": [192], "dtype": "float32"}, {"name": "block_5_expand_BN/moving_mean", "shape": [192], "dtype": "float32"}, {"name": "block_5_expand_BN/moving_variance", "shape": [192], "dtype": "float32"}, {"name": "block_5_project/kernel", "shape": [1, 1, 192, 32], "dtype": "float32"}, {"name": "block_5_project_BN/gamma", "shape": [32], "dtype": "float32"}, {"name": "block_5_project_BN/beta", "shape": [32], "dtype": "float32"}, {"name": "block_5_project_BN/moving_mean", "shape": [32], "dtype": "float32"}, {"name": "block_5_project_BN/moving_variance", "shape": [32], "dtype": "float32"}, {"name": "block_6_depthwise/depthwise_kernel", "shape": [3, 3, 192, 1], "dtype": "float32"}, {"name": "block_6_depthwise_BN/gamma", "shape": [192], "dtype": "float32"}, {"name": "block_6_depthwise_BN/beta", "shape": [192], "dtype": "float32"}, {"name": "block_6_depthwise_BN/moving_mean", "shape": [192], "dtype": "float32"}, {"name": "block_6_depthwise_BN/moving_variance", "shape": [192], "dtype": "float32"}, {"name": "block_6_expand/kernel", "shape": [1, 1, 32, 192], "dtype": "float32"}, {"name": "block_6_expand_BN/gamma", "shape": [192], "dtype": "float32"}, {"name": "block_6_expand_BN/beta", "shape": [192], "dtype": "float32"}, {"name": "block_6_expand_BN/moving_mean", "shape": [192], "dtype": "float32"}, {"name": "block_6_expand_BN/moving_variance", "shape": [192], "dtype": "float32"}, {"name": "block_6_project/kernel", "shape": [1, 1, 192, 64], "dtype": "float32"}, {"name": "block_6_project_BN/gamma", "shape": [64], "dtype": "float32"}, {"name": "block_6_project_BN/beta", "shape": [64], "dtype": "float32"}, {"name": "block_6_project_BN/moving_mean", "shape": [64], "dtype": "float32"}, {"name": "block_6_project_BN/moving_variance", "shape": [64], "dtype": "float32"}, {"name": "block_7_depthwise/depthwise_kernel", "shape": [3, 3, 384, 1], "dtype": "float32"}, {"name": "block_7_depthwise_BN/gamma", "shape": [384], "dtype": "float32"}, {"name": "block_7_depthwise_BN/beta", "shape": [384], "dtype": "float32"}, {"name": "block_7_depthwise_BN/moving_mean", "shape": [384], "dtype": "float32"}, {"name": "block_7_depthwise_BN/moving_variance", "shape": [384], "dtype": "float32"}, {"name": "block_7_expand/kernel", "shape": [1, 1, 64, 384], "dtype": "float32"}, {"name": "block_7_expand_BN/gamma", "shape": [384], "dtype": "float32"}, {"name": "block_7_expand_BN/beta", "shape": [384], "dtype": "float32"}, {"name": "block_7_expand_BN/moving_mean", "shape": [384], "dtype": "float32"}, {"name": "block_7_expand_BN/moving_variance", "shape": [384], "dtype": "float32"}, {"name": "block_7_project/kernel", "shape": [1, 1, 384, 64], "dtype": "float32"}, {"name": "block_7_project_BN/gamma", "shape": [64], "dtype": "float32"}, {"name": "block_7_project_BN/beta", "shape": [64], "dtype": "float32"}, {"name": "block_7_project_BN/moving_mean", "shape": [64], "dtype": "float32"}, {"name": "block_7_project_BN/moving_variance", "shape": [64], "dtype": "float32"}, {"name": "block_8_depthwise/depthwise_kernel", "shape": [3, 3, 384, 1], "dtype": "float32"}, {"name": "block_8_depthwise_BN/gamma", "shape": [384], "dtype": "float32"}, {"name": "block_8_depthwise_BN/beta", "shape": [384], "dtype": "float32"}, {"name": "block_8_depthwise_BN/moving_mean", "shape": [384], "dtype": "float32"}, {"name": "block_8_depthwise_BN/moving_variance", "shape": [384], "dtype": "float32"}, {"name": "block_8_expand/kernel", "shape": [1, 1, 64, 384], "dtype": "float32"}, {"name": "block_8_expand_BN/gamma", "shape": [384], "dtype": "float32"}, {"name": "block_8_expand_BN/beta", "shape": [384], "dtype": "float32"}, {"name": "block_8_expand_BN/moving_mean", "shape": [384], "dtype": "float32"}, {"name": "block_8_expand_BN/moving_variance", "shape": [384], "dtype": "float32"}, {"name": "block_8_project/kernel", "shape": [1, 1, 384, 64], "dtype": "float32"}, {"name": "block_8_project_BN/gamma", "shape": [64], "dtype": "float32"}, {"name": "block_8_project_BN/beta", "shape": [64], "dtype": "float32"}, {"name": "block_8_project_BN/moving_mean", "shape": [64], "dtype": "float32"}, {"name": "block_8_project_BN/moving_variance", "shape": [64], "dtype": "float32"}, {"name": "block_9_depthwise/depthwise_kernel", "shape": [3, 3, 384, 1], "dtype": "float32"}, {"name": "block_9_depthwise_BN/gamma", "shape": [384], "dtype": "float32"}, {"name": "block_9_depthwise_BN/beta", "shape": [384], "dtype": "float32"}, {"name": "block_9_depthwise_BN/moving_mean", "shape": [384], "dtype": "float32"}, {"name": "block_9_depthwise_BN/moving_variance", "shape": [384], "dtype": "float32"}, {"name": "block_9_expand/kernel", "shape": [1, 1, 64, 384], "dtype": "float32"}, {"name": "block_9_expand_BN/gamma", "shape": [384], "dtype": "float32"}, {"name": "block_9_expand_BN/beta", "shape": [384], "dtype": "float32"}, {"name": "block_9_expand_BN/moving_mean", "shape": [384], "dtype": "float32"}, {"name": "block_9_expand_BN/moving_variance", "shape": [384], "dtype": "float32"}, {"name": "block_9_project/kernel", "shape": [1, 1, 384, 64], "dtype": "float32"}, {"name": "block_9_project_BN/gamma", "shape": [64], "dtype": "float32"}, {"name": "block_9_project_BN/beta", "shape": [64], "dtype": "float32"}, {"name": "block_9_project_BN/moving_mean", "shape": [64], "dtype": "float32"}, {"name": "block_9_project_BN/moving_variance", "shape": [64], "dtype": "float32"}, {"name": "bn_Conv1/gamma", "shape": [32], "dtype": "float32"}, {"name": "bn_Conv1/beta", "shape": [32], "dtype": "float32"}, {"name": "bn_Conv1/moving_mean", "shape": [32], "dtype": "float32"}, {"name": "bn_Conv1/moving_variance", "shape": [32], "dtype": "float32"}, {"name": "dense/kernel", "shape": [1280, 1024], "dtype": "float32"}, {"name": "dense/bias", "shape": [1024], "dtype": "float32"}, {"name": "dense_1/kernel", "shape": [1024, 9], "dtype": "float32"}, {"name": "dense_1/bias", "shape": [9], "dtype": "float32"}, {"name": "expanded_conv_depthwise/depthwise_kernel", "shape": [3, 3, 32, 1], "dtype": "float32"}, {"name": "expanded_conv_depthwise_BN/gamma", "shape": [32], "dtype": "float32"}, {"name": "expanded_conv_depthwise_BN/beta", "shape": [32], "dtype": "float32"}, {"name": "expanded_conv_depthwise_BN/moving_mean", "shape": [32], "dtype": "float32"}, {"name": "expanded_conv_depthwise_BN/moving_variance", "shape": [32], "dtype": "float32"}, {"name": "expanded_conv_project/kernel", "shape": [1, 1, 32, 16], "dtype": "float32"}, {"name": "expanded_conv_project_BN/gamma", "shape": [16], "dtype": "float32"}, {"name": "expanded_conv_project_BN/beta", "shape": [16], "dtype": "float32"}, {"name": "expanded_conv_project_BN/moving_mean", "shape": [16], "dtype": "float32"}, {"name": "expanded_conv_project_BN/moving_variance", "shape": [16], "dtype": "float32"}]}]}